code/checkpoint_critic_best.pth (torch_old, 89504 bytes, 9 tensors)

fcs1.weight f4 [128, 33]
000000 35 0f 16 3f 90 3a 08 3f 17 7c cd 3e f5 69 7b be
       0.58616954 0.5321436 0.40133736 -0.24552138
000010 99 e5 f0 3e 9f a4 f0 bc a9 7a 0a be 0e 68 d5 bd
       0.4705017 -0.029375372 -0.13523354 -0.104202375
000020 aa df b2 3f 63 28 bd be 52 c4 0b 3d d4 1f c2 3e
       1.3974507 -0.36944875 0.034122773 0.37914908
000030 67 c3 46 be 1b ea 24 3f 1b 09 d7 3e ec fa 0d 3e
       -0.19410478 0.64419717 0.41999134 0.1386525
000040 3c d5 ae 3f 5d 55 ca 3e b1 d1 94 3e 74 48 2b 3d
       1.3658824 0.39518252 0.29066232 0.041817144
000050 57 52 1a bc e8 af 87 be 04 79 ef 3e 32 76 7c 3e
       -0.009419045 -0.26501393 0.46772015 0.24654463
000060 a1 66 15 3e 51 7c 2f bf 50 a5 aa 3d ac b8 08 3f
       0.14589931 -0.68549067 0.08332312 0.53406787
000070 80 e4 16 3c 8d 9f 9e bd b1 53 09 bf c0 7e 85 bd
       0.009209752 -0.07745276 -0.5364333 -0.06518316
000080 b5 64 25 3f 77 f5 45 bf 2c 22 41 bf b1 5e f5 be
       0.6460679 -0.77327675 -0.7544277 -0.47923806
000090 60 11 8f 3d 6f 49 5e bf 44 7f 05 3f 0c d5 30 bf
       0.06985736 -0.868308 0.52147317 -0.69075084
0000a0 ac 00 bf 3d 4e 93 84 bf 1f ef d3 bc b8 f7 88 be
       0.093263 -1.0357454 -0.025870858 -0.26751494
0000b0 06 41 a3 be 57 c2 84 bd 16 65 8c be 2c b0 15 3e
       -0.31885546 -0.0648238 -0.27420872 0.14617985
0000c0 99 ce d2 3e 1f b9 f6 be 6a 14 ad 3d 53 51 b4 3e
       0.41173247 -0.4818811 0.08451159 0.35218295
0000d0 6b c2 cd bb 28 78 9b 3e 14 50 65 3e ae ad 09 bf
       -0.00627928 0.3036511 0.22393829 -0.5378064
0000e0 4c 5f 44 3f 65 29 07 3e c5 92 a7 bd c8 b0 3d be
       0.7670791 0.13199385 -0.08182291 -0.18524468
0000f0 23 34 31 be 8a f6 61 3e 8b 32 a3 3d cc 76 75 3e
       -0.17305045 0.22066703 0.07968625 0.23971099
000100 82 59 55 3d 05 8e 85 bf e5 92 f8 be 7c e1 f9 be
       0.052087314 -1.0433966 -0.48549572 -0.48804843
000110 3c ca 3d 3f 2f e4 b4 3e 09 03 a3 bd c5 ad ff be
       0.7413671 0.3533034 -0.07959563 -0.49937263
000120 3f dc b7 3e 81 4e 16 3e ee aa 6a 3d 77 0d 9f b9
       0.35910222 0.14678384 0.057291918 -0.00030336875
000130 a0 7f 8c bd b3 e4 71 3e 6f c4 80 be df e0 a2 3e
       -0.0686028 0.23622398 -0.25149867 0.31812188
000140 35 33 e7 3e 0f 20 b3 bd cd 47 29 bf 11 05 5b be
       0.45156255 -0.08746349 -0.66125184 -0.21388651
000150 d3 2c d3 be 29 90 80 be b8 2a 10 be 13 b7 31 3e
       -0.41245136 -0.25109985 -0.14078796 0.17354994
000160 a5 f3 b2 3e 20 9e 29 3f bb 25 f8 bd 34 f4 d1 be
       0.3495151 0.66256905 -0.121165715 -0.41006625
000170 58 f6 11 3f 69 ec 89 3e 81 f1 ad be 45 98 8a bd
       0.57016516 0.2693818 -0.33973315 -0.06767324
000180 89 f2 87 be 5a c7 1f bd 1c 04 a5 be b0 cb 0f 3e
       -0.26552227 -0.039008476 -0.32229698 0.14042544
000190 30 41 95 3f cd b9 cb bb 50 be 66 bd 53 83 08 bf
       1.1660519 -0.0062172175 -0.05633384 -0.53325385
0001a0 aa 96 a6 be 70 01 d3 bb 06 ed ed bd 79 e7 8f bd
       -0.32536823 -0.0064393803 -0.11617474 -0.07026572
0001b0 f1 04 e5 3d 2b 0d cc 3d 18 e5 fc 3c b1 7d 13 be
       0.11182583 0.09963449 0.03087096 -0.14403416
0001c0 eb 1c 71 3e 91 b9 7f bf d2 12 c1 bb 58 e5 1d bf
       0.23546188 -0.99892527 -0.005892136 -0.61678076
0001d0 f9 1f 93 3d e9 a1 b3 3e f1 53 54 3e 0f 15 46 bc
       0.07183833 0.35084465 0.20735146 -0.012089982
0001e0 a5 28 97 bd 24 d6 e6 3d e0 40 73 be 06 9b b4 be
       -0.07380799 0.11271313 -0.23755217 -0.35274523
0001f0 b1 1d 0f bd 99 6c 70 be 5e 05 61 bd 31 0c 1b 3e
       -0.034940425 -0.23478927 -0.05493676 0.1514137
000200 80 7c 6f 3c 17 69 ff 3d 22 84 51 3d 03 b0 c0 bf
       0.014617085 0.12471216 0.051151402 -1.5053715
000210 ef 49 d2 3e bc c7 d6 3e e6 3f 55 3f d9 72 24 be
       0.41072032 0.4194926 0.83300626 -0.16059436
000220 c5 f2 d6 3e 2f 7a 61 3e a2 a8 0a 3f d5 41 04 3e
       0.41982093 0.22019266 0.54163563 0.12915738
000230 f4 8c 37 bf ce 00 2d 3f d2 b1 5f 3e fa 4d 0f be
       -0.7169945 0.6757935 0.21845177 -0.1399459
000240 af 77 6a bd 0f c3 15 3f 92 30 09 bf b5 3d c1 3c
       -0.057243045 0.5850076 -0.5358974 0.023588995
000250 eb 06 80 3f b7 bc 30 bf be 06 00 3f ad 76 80 3e
       1.0002111 -0.69037956 0.5001029 0.25090542
000260 e1 e3 d2 3d 13 69 df bc 11 1d 13 3e eb 3f 04 3f
       0.10297371 -0.027271783 0.14366557 0.5166003
000270 73 fe 52 be b8 21 90 bd 9f 2f fe be b3 01 18 3e
       -0.20604877 -0.07037681 -0.49645707 0.14844398
000280 30 ca c0 bd f8 f4 32 3c 11 c6 82 bd be dd 09 bd
       -0.09413564 0.010922663 -0.063854344 -0.033658735
000290 81 80 0e bf 42 5c 81 be ca d7 cd 3e 2f 30 46 3e
       -0.5566483 -0.252657 0.40203696 0.19354318
0002a0 9e dd 00 bf 28 12 0c bf 35 fb 31 3f 04 88 14 be
       -0.5033816 -0.54715204 0.69523937 -0.14505011
0002b0 8d 19 72 3c 39 75 4f bf 8c ba a7 3e 86 09 89 bd
       0.0147766 -0.8103824 0.3275951 -0.066912696
0002c0 27 da 32 3e 69 07 07 3e b0 86 fb 3d 0a 12 ea 3d
       0.17466031 0.1318642 0.12281549 0.11429222
0002d0 ba 34 0a bd ae a7 86 be 95 61 e9 be 12 4f b3 3e
       -0.03374169 -0.26299804 -0.45582262 0.35021263
0002e0 96 00 ce 3d c6 a9 6f 3d 92 86 08 3f 7d 10 e7 3e
       0.100587055 0.058511518 0.5333034 0.45129767
0002f0 f4 0c ac 3e 5e 11 78 3e 6a 68 18 3f 55 df 12 bf
       0.33603632 0.24225375 0.59534323 -0.5737203
000300 b3 dd 45 3f aa 56 f1 be a8 58 d2 3c 78 b6 3a bf
       0.7729141 -0.47136432 0.02567704 -0.72934675
000310 d6 49 6e bd c5 27 8c 3f 6a b3 0d be ed 55 62 be
       -0.058175884 1.0949637 -0.13837972 -0.2210309
000320 98 23 b9 3e ac ee 19 3e 9a fc 8b be d2 7c fe 3e
       0.36159968 0.15032452 -0.27341157 0.49704605
000330 69 42 f8 3e 4e 91 07 be d0 7e 91 3e 35 cf f7 3d
       0.48488167 -0.13239023 0.28417063 0.121000685
000340 e7 bd d2 be 93 36 6d 3e 45 a8 7e 3d 3f 18 52 be
       -0.4116051 0.2316535 0.062172193 -0.20517062
000350 58 89 2c be 2b 42 12 bd 59 71 5b be 6b e5 a8 be
       -0.16849267 -0.035707634 -0.21429957 -0.32987532
000360 81 49 ce bd ee cb 59 3e 8a 2b 17 be 10 28 0a 3f
       -0.100726135 0.21269199 -0.14762703 0.5396738
000370 67 d8 f0 3e 91 ec 73 bf 49 07 1f bd 98 d5 9c bd
       0.47040102 -0.95282847 -0.038825307 -0.07657927
000380 f1 c1 a4 be 91 5e 82 bd 1f 04 ce be e1 56 ae 3d
       -0.32179216 -0.06365693 -0.4023752 0.085126646
000390 8a 14 4f bd 68 f6 6d bd 9e fa bb be eb d4 c7 bd
       -0.050556697 -0.05809632 -0.36714643 -0.09757408
0003a0 67 18 27 3e 87 b9 c4 3e 11 e4 53 be 17 a0 d1 bc
       0.16317903 0.38422796 -0.20692469 -0.025589032
0003b0 7a 21 c8 be b9 da 0a 3e f2 6e 08 3f 90 79 99 3e
       -0.3908804 0.13559999 0.5329429 0.29975557
0003c0 ad 7d d4 be 7f 38 52 3d 83 41 01 3e 9a af 9b 3d
       -0.41502133 0.05132341 0.12622647 0.07601853
0003d0 9c a9 c2 3e c7 0d 0e bf 37 bb 7e bf 3d eb 92 3d
       0.38020027 -0.5548977 -0.9950442 0.071737744
0003e0 f6 f1 fb 3c e4 f2 46 be 62 2b 4b 3c 32 02 eb bd
       0.030755024 -0.19428593 0.01240048 -0.11475028
0003f0 f7 9b b2 3d ca 53 60 be d5 fc 06 3f 34 10 68 bd
       0.08721154 -0.21906963 0.5272954 -0.056656078

fcs1.bias f4 [128]
000000 a7 df 0a bf 09 6d c9 3e 5a c4 b4 bd eb c3 3e 3e
       -0.54247516 0.39341 -0.088265136 0.18629424
000010 c3 9a 41 be ea 71 37 bf 6d a2 b1 bd 1c 43 98 be
       -0.18906693 -0.71658194 -0.086735584 -0.297387
000020 56 15 ca be 3a c7 e2 3e 74 93 29 3e 6e 69 e9 be
       -0.39469403 0.44292623 0.16560155 -0.4558825
000030 a5 f7 1c bf 17 d8 24 bf 9a b2 68 be 63 e7 5f 3d
       -0.61315376 -0.64392227 -0.22724381 0.054664027
000040 d3 a3 ea 3d e8 64 04 bf 7f 0e 26 bf bb 7c 1e bc
       0.11457028 -0.5171647 -0.6486587 -0.009673293
000050 59 8a 2f bf 99 1e 34 bf ef 5c 48 bf 1c 4c fb be
       -0.68570477 -0.7035919 -0.78266805 -0.49081504
000060 e4 38 2a 3e 59 d1 bf bc 49 f8 01 3e bd f5 51 bd
       0.16623265 -0.023415254 0.1269237 -0.051259745
000070 e8 bd 14 bf 99 d4 69 3e b6 2a 9c be 1e ab 10 3e
       -0.58102274 0.22835006 -0.30501336 0.14127776
000080 e2 ac 95 bd 76 95 20 bf 7d 50 2f 3e 30 33 1f bf
       -0.073083654 -0.6272806 0.17120548 -0.6218748
000090 a7 71 82 be 37 f1 25 bf 82 f9 df be 64 82 1f 3f
       -0.25477335 -0.6482119 -0.43745047 0.62308335
0000a0 ff 86 92 bf 10 5c 24 bf d2 46 20 bf 75 be 13 bf
       -1.1447448 -0.64202976 -0.62608063 -0.5771249
0000b0 90 74 e3 3d 31 8d 67 be 19 57 f8 be b9 98 f7 be
       0.11106217 -0.22612454 -0.4850395 -0.48358706
0000c0 e3 ef 93 3f 1a 1e 95 be 11 bd 04 bf 09 f3 f2 be
       1.1557583 -0.29124528 -0.5185099 -0.47451046
0000d0 ba 7b 1f bf 3f 73 14 3e ad 49 0f be d1 98 f2 be
       -0.62298167 0.14497088 -0.13992949 -0.47382215
0000e0 15 70 b7 be 6e e6 fd be 24 de 8e bc 7c b5 88 be
       -0.358277 -0.49589866 -0.01743991 -0.26700962
0000f0 23 9e 1f be b5 04 92 bf a1 37 2d bf 53 fd 73 be
       -0.15587668 -1.1407686 -0.6766301 -0.23827104
000100 c7 dc 92 3e 88 0d 2b bf 93 9e a1 be d4 a1 aa be
       0.28684065 -0.6681752 -0.31566295 -0.3332659
000110 b7 87 1e bf 91 c5 53 bf 9b a2 06 bf 08 72 8e 3e
       -0.61925834 -0.8272334 -0.52591866 0.27821374
000120 36 2a 3a 3e 8b 36 e5 be ff 6f 16 bf 29 62 df be
       0.18180165 -0.44768175 -0.5876464 -0.43629578
000130 5a 44 76 bd c8 9b da be 22 92 d1 3e 70 99 01 3f
       -0.06012378 -0.42696977 0.40931803 0.5062475
000140 a9 1c 45 bd 25 6e 02 bd cc 82 18 bf a4 11 2f bf
       -0.048123036 -0.031843323 -0.5957458 -0.6838629
000150 27 ae 08 bf b0 8f 15 bf 3a 6b 12 3d 24 f0 46 bd
       -0.53390735 -0.58422375 0.03574679 -0.04856886
000160 c8 13 60 bf c3 43 7d bf f5 53 e0 be df db 8d be
       -0.87530184 -0.9893152 -0.43814054 -0.2770681
000170 6e 4e c2 bc aa 5f 5d 3e da c1 84 3c a5 e7 c6 bd
       -0.023719039 0.21618524 0.016205717 -0.097121514
000180 ae e5 ed 3e 91 92 45 3e 8f f4 1c 3f f5 15 1d bf
       0.46464294 0.19294192 0.61310667 -0.6136163
000190 e4 ad b8 be 16 8b ac bd 27 e5 08 bf c2 a5 60 3e
       -0.36070168 -0.08424966 -0.5347466 0.21938232
0001a0 bf 1c 1a bf c1 ce d0 be 2d 95 c5 bd b8 93 10 3f
       -0.60200113 -0.4078274 -0.09647594 0.564754
0001b0 3c 7b ff be 10 8e 90 be db 75 2f be da ea 03 bf
       -0.49898708 -0.28233385 -0.17134802 -0.5153023
0001c0 4e b6 e0 be 4d 2b 80 be a0 43 36 be 5b 64 93 bd
       -0.43889087 -0.25033036 -0.17799234 -0.07196876
0001d0 94 70 fa be c1 e4 ce bc 4e 18 79 3d 26 c2 1c bf
       -0.48914015 -0.025255563 0.060814194 -0.61233747
0001e0 97 d0 d9 3e cc 0c 54 bf c6 45 9a 3d d7 b7 ae bf
       0.42541954 -0.82832026 0.075328395 -1.3649853
0001f0 8c eb 9f bd e0 a8 63 bf b7 0f 16 3f 3d 21 0f be
       -0.07808599 -0.8892956 0.5861773 -0.13977523

bns.weight f4 [128]
000000 24 93 98 3d b7 ec 2a 3e 8c 92 1b 3e f0 7c 20 3e
       0.0744994 0.16691862 0.15192622 0.1567266
000010 eb 85 aa 3d c1 86 f1 3d 2f eb 06 3e f3 fb 1f 3e
       0.08326324 0.117932804 0.13175653 0.15623455
000020 80 86 0f 3e 03 75 56 3e 4e 27 66 3e fe 78 3c 3e
       0.14016151 0.20943074 0.22475931 0.1840553
000030 d2 fe 32 3f 7c da 05 3e 62 9d c4 bc 08 ce 7b 3e
       0.69920075 0.13071626 -0.024000827 0.24590313
000040 bb e6 98 3e c6 fb e4 3d 9d 05 19 be 44 0d cc 3d
       0.29863533 0.111808345 -0.14943548 0.09963468
000050 83 d5 27 3e f0 db 06 bb c6 3c 4d 3d 23 51 da 3d
       0.16390042 -0.002057787 0.050106786 0.10660007
000060 1c ac 5c 3e 79 61 cd 3e c4 97 af 3d 3b 01 96 3d
       0.2155003 0.40113428 0.08573869 0.073244534
000070 58 f0 35 3e b8 55 d1 3d 20 ac d6 3e fe 83 6f 3c
       0.17767465 0.10221428 0.41928196 0.014618872
000080 75 02 d5 3d 16 9f be 3b 2a 9b 3e 3c 59 12 ee 3e
       0.10400859 0.0058173044 0.011633674 0.46498373
000090 29 c4 b4 3d 44 40 5f 3e 6e 85 c2 3d 4b b5 7f 3e
       0.08826477 0.21801859 0.09498106 0.24971502
0000a0 3e 64 14 3e 43 a4 f2 3d 8d 12 57 3e f7 bf 0c 3e
       0.14491364 0.11847737 0.2100317 0.13745104
0000b0 b5 27 e6 3d a4 f9 a7 3d b9 6c be 3d a6 00 7b 3e
       0.11238042 0.08201912 0.09298081 0.24511966
0000c0 ed 2a b9 bc 52 6c 6f 3d 16 aa 37 3e f0 53 5b 3e
       -0.022603476 0.05845291 0.17935976 0.21418738
0000d0 a0 c4 96 3d ca 2a e7 3d 9c 36 6c 3e e1 45 d5 3d
       0.07361722 0.11287458 0.23067707 0.10413719
0000e0 ed c6 b3 3d 3c fa 07 3e 9c 00 04 3e 77 17 dc 3d
       0.087781765 0.1327905 0.12890857 0.10746663
0000f0 76 63 cc 3d 89 5f 18 3e de 6f 6b 3c af d1 3f 3d
       0.09979908 0.14880194 0.014369933 0.04683083
000100 ab 27 ca 3d 0c 65 f9 3d c4 08 1a 3e 4f bf 16 3e
       0.09870847 0.12177476 0.15042406 0.14721416
000110 90 76 79 3d 2d 2f 7e 3d a7 67 b5 3d e5 9a 57 3e
       0.060904086 0.06205671 0.08857661 0.21055181
000120 21 80 49 3e 82 71 25 3e 04 05 97 3e bf 71 ff 3e
       0.19677784 0.16156581 0.29496014 0.4989147
000130 96 90 fb 3d 4c a5 62 3e b2 3a 1c 3e b3 8a 79 3d
       0.12283437 0.22133368 0.15256765 0.06092329
000140 84 ac 96 3d 03 b5 ab 3d d8 c4 92 3d 6d d4 53 3e
       0.073571235 0.083841346 0.07166451 0.20686503
000150 46 b1 f7 3d fb 0a 1c 3e cd 18 4a 3e 41 58 22 3e
       0.12094359 0.15238564 0.19736023 0.15853979
000160 0a 47 d2 3d a6 e1 61 3e 28 6b 2c 3e dd 2e b3 3d
       0.10267456 0.22058734 0.16837752 0.08749173
000170 10 d7 3d 3d 1f fb 0b 3e 51 3e 4b 3e 1b 40 2d 3e
       0.046347678 0.13670014 0.1984799 0.16918986
000180 89 b8 8c 3e 41 d9 b4 3e 5a df 23 3e d4 08 d4 3d
       0.2748454 0.35322002 0.1600317 0.10353246
000190 69 a3 24 3f 6e 41 3b 3f df a9 c0 3d 05 ce 37 3e
       0.64311844 0.7314671 0.094074 0.17949684
0001a0 12 08 0d 3e 95 28 cd 3d 02 ba c2 3d f2 ac 31 3e
       0.1377261 0.10017506 0.095081344 0.1735113
0001b0 11 aa 29 3e 1b df 83 3e 81 63 54 3e 09 03 41 3e
       0.16568781 0.25756153 0.20741083 0.18848814
0001c0 85 64 b7 3d a7 9a ea 3d 42 23 ce 3e 58 69 3c 3e
       0.089547195 0.11455279 0.40261275 0.1839956
0001d0 17 95 07 3f 4d 9d 5e 3e 7c 89 69 3d d3 26 fb 3d
       0.5296187 0.21739693 0.05701588 0.122632645
0001e0 aa 0c 71 3e d6 1b c4 3d 0d 3e 89 3e 84 9c f2 3b
       0.23539987 0.09575622 0.26805153 0.007403912
0001f0 10 d1 86 3e ef 8a 0b 3e 35 ff 40 3e 51 7c 21 3e
       0.26331377 0.13627218 0.18847354 0.15770079

bns.bias f4 [128]
000000 ba 93 4b be e9 54 71 3d cd 3f 89 3d 98 f2 88 be
       -0.19880572 0.058918867 0.06701622 -0.26747584
000010 95 ad 54 3c fe f8 97 3a 92 09 a7 3d ca 2a 7a bc
       0.012980838 0.0011594591 0.08156122 -0.015268991
000020 ca 57 a7 bc 39 cc 3c 3e 91 9d 55 bd 75 a2 d2 3c
       -0.020427603 0.1843728 -0.05215222 0.025712231
000030 b4 7b 09 3c 6b cd e8 bc 19 4c 67 3b 0c 4e 00 3e
       0.0083913095 -0.028418263 0.003529316 0.12529773
000040 67 8a 1a 3c 88 d2 8c 3c 9e a8 87 bb bf 02 95 3c
       0.009432412 0.017190233 -0.004139974 0.018189786
000050 b6 6b 25 3d c7 b4 15 3f 59 69 aa 3c 15 25 ce bb
       0.040385924 0.5847897 0.020802187 -0.0062910416
000060 e4 c7 47 bd aa ff d6 3d 19 14 06 be 11 b8 c8 3a
       -0.048774615 0.10497983 -0.13093604 0.0015313645
000070 59 54 2c bc f8 4a a6 3c 4e 80 06 3c 4c e9 54 be
       -0.010518157 0.02029942 0.008209301 -0.2079212
000080 56 22 17 3d 3d 85 e2 3e ac 66 b1 be c5 b5 e9 bd
       0.03689798 0.44242278 -0.34648645 -0.11411623
000090 3a 7f be 3c 4c 8f 16 bd 86 0b c7 3a f6 33 c1 3d
       0.023254026 -0.036757752 0.0015185929 0.09433739
0000a0 04 8c 81 bd 6d d0 e1 3c 2b 56 1d bd 08 4d 46 bc
       -0.06325534 0.027565205 -0.038412254 -0.012103327
0000b0 61 c6 05 3e 40 94 03 bb aa fd 07 bc fb 9a 30 3a
       0.13063957 -0.0020077378 -0.008300224 0.0006736961
0000c0 e9 9e 1a bf 0c 76 73 bd 8c 78 d3 3c f5 90 9b bd
       -0.6039873 -0.05943875 0.025814317 -0.07596008
0000d0 08 15 cb 3b a8 a9 34 3d bf 0b 90 bd 31 bb a1 bd
       0.0061975755 0.04410711 -0.070334904 -0.07897032
0000e0 1c c0 8a bc 26 67 1f 3d 4f 0d d1 3b 3d 64 ca bc
       -0.016937308 0.03891673 0.0063797603 -0.024706
0000f0 a2 01 58 bb aa 83 8a bd 6c 54 93 be ba 24 8f 3b
       -0.0032959958 -0.06763394 -0.28775346 0.004368392
000100 0f 82 d6 bd 44 87 bd bc 79 52 84 3c 46 61 28 3d
       -0.104740255 -0.023135789 0.016152607 0.041108392
000110 d3 fa 42 3c 89 51 d2 bc 42 0d a0 3c 47 f4 f3 3c
       0.0119006215 -0.025673645 0.019537572 0.029779566
000120 d5 42 fe bd 21 09 5e 3e 16 9c d3 bd d6 85 06 be
       -0.12415091 0.2168317 -0.103325054 -0.13136992
000130 96 3c 1a bd 8d 67 0f bd b4 22 27 bd fd 68 81 3b
       -0.037655436 -0.035010863 -0.04080458 0.003949283
000140 c3 90 8d bd 59 b5 f9 bc 35 1d 8e 3c d1 5c 61 3d
       -0.06912377 -0.030481981 0.017347911 0.055020157
000150 6d 40 8f bd 6c 90 cc bd 19 a0 a0 bd 42 80 a1 bd
       -0.0699471 -0.09988484 -0.07843036 -0.07885791
000160 56 d5 f6 3c 6d 4e bf 3b 61 0f c4 bd 07 27 42 bd
       0.030131023 0.0058382065 -0.09573246 -0.0474005
000170 1f b9 93 3b 65 6a 19 bd ec 8e ec bd ca 5d e8 3c
       0.004508152 -0.03745498 -0.11550698 0.028365035
000180 0b 49 11 3e fc b5 43 be f7 77 90 bd f2 57 a6 bd
       0.1418802 -0.1911239 -0.070541315 -0.08122243
000190 6d dc 9d bd 15 42 bc bd aa 60 2e bd 83 2c 16 3d
       -0.077080585 -0.09192292 -0.042572655 0.036663543
0001a0 6b 25 3d bc 64 d8 9e 3c cd 1d d7 bc 7a ba fe 3d
       -0.011544566 0.019390292 -0.026259327 0.12437911
0001b0 89 9e cc bd 58 ea 00 3e 1e 02 da bc 34 51 4f 3c
       -0.09991176 0.12589395 -0.026612338 0.012653638
0001c0 98 18 74 be 32 78 b1 bd bf 8c 1e be 80 33 39 be
       -0.23837507 -0.086655036 -0.15483378 -0.18086052
0001d0 c4 8f da ba 1f 00 70 bd 23 2b f0 3c 27 be 05 bb
       -0.0016674926 -0.058593865 0.029317444 -0.002040753
0001e0 de 01 3b 3e 8f cf b4 3c bf ab 9d bd 5b fc ea 3e
       0.18262431 0.022071628 -0.076987736 0.45895657
0001f0 d3 34 47 3d f6 61 00 bd f3 c1 f0 3d 74 60 e6 bc
       0.04863436 -0.031343423 0.11755743 -0.028122164

bns.running_mean f4 [128]
000000 4b f7 42 3f f0 58 7a 40 25 7c d9 3f 20 4c f2 3e
       0.7615859 3.9116783 1.6991011 0.47323704
000010 52 b0 53 3f 2e d3 0d 3f 39 0f 2f 40 85 e3 86 3f
       0.8269092 0.5540036 2.735304 1.0538183
000020 dd 2e 90 3f 33 b1 30 40 3e 9a 1a 40 43 d8 d5 3f
       1.1264302 2.7608154 2.4156642 1.6706623
000030 be c2 97 3e d0 88 01 3f 6c 84 09 3c 6f 95 ba 3f
       0.29640764 0.50599384 0.008393388 1.4576854
000040 15 95 d2 3e 1a 39 36 3f 7a 99 61 3e af df 45 3f
       0.41129366 0.7118088 0.22031203 0.7729444
000050 36 90 89 3e 9d 4a 9a 3e 85 e3 a5 3f 9e cb 22 3e
       0.26867837 0.3013505 1.2960058 0.15897986
000060 87 7a 12 3f 70 90 4f 3f 07 2e 3d 3f 31 05 46 3f
       0.5721821 0.8107977 0.7389836 0.7735167
000070 bd 0e 16 3f 11 f6 8e 3f aa 48 0c 3f ed fc 24 40
       0.5861624 1.1168844 0.54798377 2.5779374
000080 76 14 46 3f 03 f0 f8 3e d0 3a d3 3f 8b 71 e7 3e
       0.7737497 0.48620614 1.6502323 0.45203814
000090 b7 68 5f 3f 21 e5 0a 3e 2b 09 be 3e c6 88 2d 40
       0.8726916 0.13563968 0.3711637 2.711473
0000a0 a2 5e e2 3d c3 06 13 3f 53 bd bd 3f 06 db 06 3f
       0.11053206 0.5743219 1.4823402 0.52677953
0000b0 d1 d6 5d 40 fd c4 09 3f a1 38 02 3f 24 62 ff 3e
       3.4662364 0.53816205 0.5086766 0.49879563
0000c0 44 ec 1c 41 a8 01 67 3f 84 d8 a8 3e 46 ec 22 3e
       9.807682 0.902369 0.32977688 0.15910444
0000d0 16 d1 ad 3e 65 86 ae 3f 60 0f d9 3e c1 28 41 3f
       0.33948582 1.3634764 0.42394543 0.7545281
0000e0 6e cc 10 3f 11 9f c4 3e da ae a9 3f f3 f6 a3 3e
       0.56561935 0.38402608 1.3256485 0.32024345
0000f0 1a 38 d7 3d bb f2 a6 3e 7d 7a 01 3e 9f e3 0e 3e
       0.105087474 0.32607064 0.12644382 0.13954018
000100 20 03 3f 3f 25 0d f5 3e c0 c1 5f 3f 3d c8 ca 3f
       0.74614143 0.4786159 0.87405014 1.5842358
000110 3c e1 b2 3d e0 14 cf 3e bf 6a f5 3f 85 64 e2 3f
       0.08734366 0.40445614 1.9173201 1.7686926
000120 26 fd 2c 3f d8 91 7c 3f 89 8d 69 3f ec 5f ec 3e
       0.67573774 0.9866004 0.9123159 0.46166933
000130 8f d8 18 3f ae 1b d3 3e 7b a9 26 3f b2 df 2b 40
       0.5970544 0.41232055 0.65102357 2.6855283
000140 81 3d d6 3d a2 6b 2a 3e 00 df 75 3e 10 f6 a3 3e
       0.1046095 0.16642621 0.24010849 0.32023668
000150 3d ce 41 3f 6e 30 96 3e 75 48 4d 40 c1 31 3b 40
       0.7570532 0.29333824 3.2075474 2.9249117
000160 18 35 aa 3e 79 17 73 3e 0b 77 78 3f d5 c1 11 3f
       0.33243632 0.23739423 0.97056645 0.5693639
000170 83 63 58 3e 25 13 d6 3f 18 4c 88 3e 64 a8 ef 3e
       0.2113171 1.6724592 0.26620555 0.4680816
000180 88 ea 24 40 26 33 00 3f d9 97 ea 3d df f8 76 3e
       2.5768147 0.50078046 0.11454744 0.24118374
000190 fd 1b 10 3f 80 11 3d 3f d6 8f f5 3e ac 1f a6 3e
       0.56292707 0.7385483 0.479613 0.3244604
0001a0 b6 2c 59 3e 1b 89 de 3f 77 46 ff 3f 8c 5f 9e 3f
       0.21208462 1.7385591 1.9943379 1.2372909
0001b0 05 87 93 3e de f4 91 3f bd bf a4 3f 27 86 57 3f
       0.2881395 1.1402853 1.2871014 0.84189075
0001c0 e4 25 7a 3f 2f 0f 82 3e fc e3 bc 3e f2 81 2a 3e
       0.97714067 0.2540221 0.36892688 0.16651133
0001d0 49 4a 26 3f 62 c4 47 3e 40 50 b9 3f 32 81 93 3e
       0.649571 0.19508508 1.4477615 0.28809506
0001e0 21 ef 2a 40 16 6e cd 3e 96 50 81 3e 04 00 00 00
       2.6708453 0.4012305 0.25256795 6e-45
0001f0 95 a0 65 3f 4c aa 9f 3f 65 43 a3 3f 61 8e 24 40
       0.89698154 1.2473845 1.2754942 2.57119

bns.running_var f4 [128]
000000 b1 22 52 40 ce c8 60 41 f5 86 aa 40 1e 03 5b 3f
       3.2833674 14.049025 5.3289742 0.8555163
000010 c3 98 01 40 4d 3e be 3f 67 93 1e 41 e4 52 fe 3f
       2.0249488 1.4862763 9.910987 1.9869046
000020 21 68 80 40 e0 a0 bb 3f 71 a4 48 40 d2 ce 9f 40
       4.012711 1.465847 3.1350367 4.9939966
000030 39 f7 fc 3e fb 8e b2 3f db 50 56 3c 95 bf 7c 40
       0.49407366 1.3949884 0.013080801 3.9491932
000040 22 de 02 3f 08 96 d2 3f c4 95 f2 3e 2e 40 32 40
       0.511202 1.6452036 0.47379887 2.7851672
000050 2b 30 ee 3e a9 76 a7 3f d7 e8 9a 40 5f b6 67 3e
       0.46521124 1.3083087 4.840923 0.22628163
000060 41 6e 0b 3f 91 34 a8 3f 03 af f0 3f 31 14 04 40
       0.5446511 1.3141042 1.8803409 2.0637324
000070 f2 df d1 3f c8 2a 89 40 65 4d 53 3f 74 b9 4c 41
       1.6396468 4.2864723 0.8253997 12.795277
000080 41 7e fe 3f cd 92 09 40 f3 1c c3 40 e1 0a 57 3f
       1.988228 2.149585 6.097284 0.84000975
000090 78 a6 0f 40 57 84 2e 3e 57 09 c3 3e 3c f6 47 40
       2.2445354 0.17042671 0.38093063 3.124404
0000a0 8d dc 03 3e e7 f6 f0 3f 10 d9 c9 40 1b 4e 83 3f
       0.12877102 1.8825349 6.307747 1.0258211
0000b0 df 3e b3 40 15 14 91 3f 7a 38 91 3f 18 45 6c 3f
       5.6014247 1.1334254 1.134536 0.9229293
0000c0 21 02 1f 41 ae 8c a9 40 45 bf 18 3f f0 d3 22 3e
       9.93802 5.298423 0.59666854 0.1590116
0000d0 99 55 27 3f 76 6d 42 40 28 7f 10 3f 90 8c d5 3f
       0.65364987 3.037931 0.56444025 1.6683521
0000e0 48 d1 97 3f 72 6d 6e 3f 7b ef 99 40 76 06 2d 3f
       1.1860743 0.9313575 4.8104835 0.67587984
0000f0 fb 81 15 3e 45 a8 22 3f cd 09 b7 3e 18 a3 92 3e
       0.14600365 0.6353801 0.35749665 0.28640056
000100 c2 41 d6 3f 3f a2 7b 3f cf 53 db 3f ef ed b7 40
       1.6738818 0.9829444 1.7134951 5.7477946
000110 c0 61 48 3e 78 b0 83 3f dc bb b8 40 c5 ca 64 40
       0.19568539 1.0288229 5.772932 3.574876
000120 cb c4 5d 3f 66 ca 40 40 40 83 0b 40 d1 b8 82 3f
       0.8662841 3.0123534 2.1798859 1.0212651
000130 8c 08 86 3f 41 0b 1b 3f f7 18 57 3f b8 72 14 41
       1.0471358 0.6056405 0.8402247 9.2780075
000140 cf b3 26 3e f4 6d 8c 3e 61 7c e9 3e 01 77 f7 3e
       0.16279529 0.27427638 0.45602706 0.4833298
000150 8d 94 1f 40 62 03 1b 3f 6d eb 0a 41 f0 25 d6 40
       2.4934418 0.60552037 8.682477 6.692131
000160 48 cb 7d 3f 94 a2 04 3f cd 70 50 40 dc c7 98 3f
       0.9913831 0.51810575 3.2568848 1.1935992
000170 ed 95 f2 3e 3b e2 c9 40 af 01 92 3e 0a 5e 97 3f
       0.4738001 6.308866 0.2851691 1.1825573
000180 13 70 94 3f 9e c0 37 3f 48 8c 36 3e 0d e4 b4 3e
       1.1596702 0.71778286 0.1782695 0.3533024
000190 9d 7e 8c 3f 05 6f be 3f 80 a5 50 3f 3b 7d f0 3e
       1.0976139 1.487763 0.8150253 0.46970543
0001a0 da fa a8 3e 8a 44 9d 40 5d 93 8d 40 5d 3b 09 40
       0.33003885 4.9146166 4.4242387 2.1442482
0001b0 71 60 c4 3e 51 ae 5e 40 ad 91 f3 3f 2a 84 19 40
       0.3835483 3.4793894 1.9028832 2.3986917
0001c0 a2 89 32 40 eb 10 cc 3e 40 6a c6 3e 56 af 1a 3e
       2.7896504 0.39856657 0.38752937 0.15105948
0001d0 8e f9 ac 3f b9 7d 43 3e af e3 a9 40 01 f4 07 3f
       1.3513658 0.19090928 5.3090434 0.53106695
0001e0 20 40 cf 3f 36 9f 95 3f 99 31 cb 3e 04 00 00 00
       1.6191444 1.1689212 0.39686278 6e-45
0001f0 cb 8a d3 3f 74 e3 94 40 85 0f 05 40 73 cd 28 41
       1.6526731 4.6527653 2.0790722 10.5501585

fc2.weight f4 [128, 132]
000000 81 c7 ea 3e cd cf d0 3d d7 29 39 3e cb bd 4c 3e
       0.45855334 0.10195885 0.18082367 0.19994275
000010 d7 4c 59 be bf 64 ec bc 63 d1 b1 3d 73 a3 fd 3d
       -0.21220718 -0.028856633 0.086825155 0.12384691
000020 36 4c bc 3d 39 d3 c2 be 41 af bc bd 70 80 e1 bd
       0.091942236 -0.38051775 -0.092131145 -0.11010826
000030 49 cb c8 3d 2c 04 b5 3b ab a2 e1 bd 57 24 b4 3d
       0.098043986 0.005524179 -0.110173546 0.08795994
000040 33 ce 56 bb c8 5d 76 be d6 fb b0 3e 1c 6c 0d be
       -0.0032776713 -0.24059212 0.34567136 -0.13810772
000050 5d 5f e6 bd 21 91 f0 be d0 5c 82 be e5 2c f4 be
       -0.11248658 -0.46985725 -0.25461435 -0.47690502
000060 68 f4 94 be 46 40 68 bc 7e ff 7e 3e 82 0a ee 3d
       -0.29092717 -0.01417548 0.2490215 0.11623098
000070 95 05 1d bd 8c 47 8e be f3 a3 69 bc 17 a6 f5 3e
       -0.0383354 -0.2778896 -0.01426028 0.4797828
000080 ff 87 b0 bd 4c 7a 04 bf 32 11 7a 3e 04 52 6c bc
       -0.08619689 -0.5174911 0.24420622 -0.014423851
000090 35 95 fa bd e9 29 af 3d 9b 7b 80 3d 1b 9a 24 3e
       -0.1223549 0.085529156 0.06273576 0.16074412
0000a0 65 99 d9 bb e8 70 ed bc e0 5d 16 bb 1c bf d3 3d
       -0.0066406005 -0.028984502 -0.0022944137 0.103391856
0000b0 ec b0 e5 be 57 b8 05 bf 9c e9 dd be d7 b8 09 bf
       -0.44861543 -0.52234405 -0.43342292 -0.5379767
0000c0 0e 6d 14 3f da 94 50 3e ea a4 e5 be 02 cc ad 3b
       0.57978904 0.20369282 -0.44852382 0.0053038606
0000d0 79 83 b8 3d 4b 50 12 be 55 66 d2 bc 4f e4 80 3e
       0.090094514 -0.14288442 -0.025683561 0.25174186
0000e0 5c 27 07 3e 1e 3d d4 be dc 03 1d bc 57 e4 3d 3d
       0.13198608 -0.4145288 -0.00958344 0.04636034
0000f0 7f c5 72 bd df 69 17 3d 59 20 da 3e 5a 7c 89 3d
       -0.05927038 0.0369662 0.42602804 0.06713171
000100 65 40 8a 3d 59 9d 74 3c 3b b4 b0 be 2f 1a 6f 3e
       0.067505635 0.014930093 -0.34512505 0.23349832
000110 5b a3 06 be 1a 06 6e bd d6 55 f4 3d 3e 14 ad bd
       -0.13148253 -0.058111288 0.119304344 -0.084511265
000120 e0 a2 d0 bd a2 9a b7 be be 8b 1b 3e 7f 4d 13 3d
       -0.10187316 -0.35860163 0.15190026 0.035962578
000130 58 1f ef be 68 f0 82 3e ff 04 20 be a8 2c 76 be
       -0.467036 0.2557404 -0.15626906 -0.24040473
000140 66 44 4f 3e 05 e2 8b 3e 24 29 cd 3d 75 84 c8 bd
       0.20240936 0.27320877 0.100176126 -0.09790889
000150 e5 85 b3 3d 39 0d 5b be ec d7 5d be e4 65 3b 3d
       0.08765773 -0.21391763 -0.21664399 0.045751467
000160 36 ad 15 3e e1 0b 4d 3d 02 b9 26 be e8 42 19 3e
       0.14616856 0.050060157 -0.16281512 0.14966929
000170 fd 48 d4 bd 11 6d 0a bd 08 52 0f be b5 50 07 3e
       -0.10365484 -0.03379542 -0.13996136 0.13214381
000180 a9 15 37 3e 8d 5d fe 3a 1c 9e 7d 3d b7 ed c7 3d
       0.17879356 0.0019406542 0.061918363 0.097621374
000190 94 e2 89 3d a5 f0 e6 3c 4b 8c e7 3d b4 56 c1 bd
       0.067326695 0.02819092 0.11306056 -0.094403654
0001a0 be 92 3a 3d cf d6 b5 bd 13 d8 a9 3c 12 5a 90 be
       0.0455501 -0.08878862 0.020732915 -0.28193718
0001b0 a9 b3 6f 3e bb 4d 70 3e be b2 78 bd bf 57 7f bd
       0.23408379 0.23467152 -0.060717337 -0.06233954
0001c0 9b 26 f1 3d 21 17 1a 3e 34 51 55 3d 29 36 69 bc
       0.117749415 0.15047885 0.052079394 -0.014234104
0001d0 20 7a 1b be 87 83 2b bd e9 6e 37 bd 51 dd 47 be
       -0.15183306 -0.04187348 -0.044783507 -0.1951802
0001e0 c5 01 01 3e 5a c0 57 be 8d f6 58 be cc 07 ae be
       0.12598331 -0.2106947 -0.21187802 -0.33990324
0001f0 9e 8d 33 be 7b 9f 6f 3e b5 82 42 bc 1e 23 e5 3d
       -0.17534491 0.2340068 -0.011871983 0.11188339
000200 6f 48 26 3e 63 07 92 3c 7b 85 2e 3e c6 dd 73 be
       0.16238569 0.017825788 0.17043106 -0.23815069
000210 75 36 d5 3d 19 60 95 3d 52 22 2f 3c d1 ab 43 3d
       0.104107775 0.0729372 0.010689335 0.04777128
000220 8d 0c 9b 3b 17 63 63 bd f4 dd 87 3d fc f7 31 3c
       0.004731721 -0.05551442 0.06634131 0.010862347
000230 82 12 87 3d 3c 4e 45 3c 22 54 3d b9 3b 3e 94 bd
       0.06595327 0.012042578 -0.00018055786 -0.07238432
000240 80 c7 a9 3c d1 a9 76 bd fd bb b9 bb 2c 2d e3 bc
       0.020725012 -0.060220543 -0.005668162 -0.0277315
000250 34 06 10 be 98 0e cb bd fb f6 3d 3e 36 53 2e bd
       -0.14064866 -0.09914893 0.18551247 -0.042559825
000260 dd d8 fc bd d4 4a 34 be 67 b4 8e 3c 80 d6 1e be
       -0.12346051 -0.1760667 0.017420007 -0.15511513
000270 e5 78 b2 ba a4 cf 89 bc 58 5a fc bb 2e c5 aa 3d
       -0.0013616352 -0.016822644 -0.0077011995 0.0833839
000280 96 b9 bd 3c 04 93 b5 3c 54 7e f5 3b 0d 66 7b 3e
       0.023159783 0.02216483 0.007491866 0.24550648
000290 40 69 77 bc 42 8d 3f be f3 b8 9f 3d 47 93 c2 3b
       -0.015100777 -0.1870623 0.07798948 0.005937967
0002a0 9e ef 3c be a5 f6 ae bc 94 92 0b 3d e6 fb bf bd
       -0.18450782 -0.021357844 0.034075335 -0.09374218
0002b0 7a 5a 8a bd 28 11 03 bd 29 de 3c 3d ee de 72 ba
       -0.06755538 -0.031998783 0.046110306 -0.00092647865
0002c0 b9 d7 2c be 52 a2 75 be 95 1a 78 be 5d 55 c9 bd
       -0.16879167 -0.23987702 -0.2422889 -0.09830735
0002d0 29 f0 13 3e 7a 1c b1 3c 19 bc f0 bd 3b be 13 bd
       0.14447083 0.021620024 -0.11754627 -0.03607009
0002e0 e0 63 98 3b 8b 3b f6 bc 25 e5 b2 3d 5a fd da 3d
       0.004650578 -0.03005769 0.08735112 0.10692854
0002f0 3f 83 1d 3d f4 b1 8d bd 38 03 4b 3d bc 28 8a bc
       0.038455244 -0.069187075 0.049563617 -0.016865127
000300 ef 64 ba bd 14 6e 1e be 53 75 11 3e e4 d4 53 bc
       -0.09101283 -0.15471679 0.14204912 -0.012929175
000310 96 9e 04 3d 92 86 18 bd fb 7b f1 bd 66 4c b5 3d
       0.0323778 -0.03723771 -0.117912255 0.088524625
000320 49 7c 2c be ec a9 9e bd ce 12 e5 bd fe 7d e1 bd
       -0.16844286 -0.07747254 -0.11185227 -0.11010359
000330 32 9b 3f bd b3 f2 57 be b5 cd ad bd 5e 40 fb 3c
       -0.046778865 -0.21088676 -0.08486501 0.030670341
000340 60 fb a5 bd ea 43 3c bd 20 21 12 bd a3 ff b7 ba
       -0.081045866 -0.045963205 -0.03567612 -0.0014037978
000350 21 77 10 bd 9a 55 e4 bc cf 6b a4 3c 12 c4 28 bd
       -0.03526986 -0.02787285 0.020070938 -0.041202612
000360 06 11 27 3c 97 a5 b6 bd e6 eb 7f bc 1f 6e 93 bd
       0.01019693 -0.089183025 -0.015620207 -0.07198738
000370 e9 5b 54 3b 14 57 31 bd 98 a1 d0 3d 4f a1 94 3d
       0.0032403416 -0.043295935 0.101870716 0.0725733
000380 3d 17 83 3d c5 3c be ba 49 6f 0e bd 3b c9 ec 3c
       0.06400917 -0.001451396 -0.0347741 0.028904548
000390 53 0a d8 3d 0b e0 cd 3c 23 62 e4 ba 3b a0 96 bc
       0.10548844 0.025131246 -0.0017424267 -0.01838695
0003a0 23 e1 94 3d f1 30 0e 3b c7 02 1f bc f7 2a 1f bd
       0.07269504 0.0021696652 -0.009705252 -0.038859334
0003b0 91 42 a0 bd f2 3a 12 bd 2b 32 d6 3c 29 7c 18 bd
       -0.078251965 -0.035700746 0.026146969 -0.037227783
0003c0 bb 5a 1a bd f7 eb 08 3d 15 78 64 3d 4b 96 f2 bb
       -0.037684184 0.03342816 0.05577858 -0.00740317
0003d0 92 4a bf 3d 36 cc 99 3d 7b 1e e1 3d 64 aa 9d bd
       0.09340395 0.07509653 0.10992142 -0.07698515
0003e0 f4 0c aa 3c 7b 73 b7 3c c4 a1 0b 3d ea dc 16 be
       0.02075813 0.022393933 0.03408982 -0.1473271
0003f0 f9 93 1d bd b4 47 23 bc de 95 e6 bd b4 bb 85 be
       -0.038471196 -0.009965826 -0.11259054 -0.2611977

fc2.bias f4 [128]
000000 5b fe d1 be 1a 9e 83 be 15 8a 6c be d9 fa bc be
       -0.4101437 -0.2570656 -0.23099549 -0.36910132
000010 e5 15 13 bd 6b de 2e be 3f 19 2e 3d d3 43 c5 be
       -0.035909552 -0.17077033 0.042504545 -0.38528308
000020 bf 3f 3c be 2b 77 d4 be 43 8a 1f be 7d a8 bc bd
       -0.18383692 -0.41497168 -0.15580086 -0.09211824
000030 74 20 78 be 1d 4e f0 be 87 94 08 bf b0 22 8e be
       -0.2423113 -0.46934596 -0.53351635 -0.2776084
000040 d2 9c c5 be 75 50 01 bf 59 7e e6 be 9d 35 4d be
       -0.38596207 -0.5051339 -0.4501827 -0.20039983
000050 10 ce d6 be 55 96 d6 3e 8e f1 e4 be b3 03 67 be
       -0.41954088 0.4191157 -0.44715542 -0.22560005
000060 8d 89 66 be b3 43 94 be 01 e3 9f be 77 e8 d2 be
       -0.22513409 -0.289579 -0.31227878 -0.41192982
000070 62 8e c5 3e 24 d2 f0 be 84 2f c0 be 48 e4 b1 be
       0.38585192 -0.47035325 -0.37536252 -0.34744477
000080 09 4d b4 be 59 f2 73 3c a5 f4 96 be 6e 80 51 be
       -0.35215023 0.014889323 -0.29483524 -0.20459148
000090 68 92 f8 be 3f 71 7a be 25 45 86 be d0 19 69 be
       -0.485492 -0.24457262 -0.26224628 -0.22763753
0000a0 8a 90 9d be 16 cb bc be e4 1c de be 11 18 c6 be
       -0.30774337 -0.36873692 -0.43381417 -0.38690236
0000b0 7c 0d 23 bf db d8 82 be 5f 83 8f be f2 55 59 be
       -0.6369245 -0.25556073 -0.28029916 -0.21224192
0000c0 5f 65 5e be 33 48 ab be 1a bf e0 be 6d 5a df be
       -0.21718358 -0.3345352 -0.438958 -0.43623677
0000d0 63 4d aa 3e 3a 9f da 3d 05 96 27 be 1c 35 b1 be
       0.33262166 0.10674901 -0.16365822 -0.34610832
0000e0 3d 18 78 be d6 56 c5 3e c0 64 82 be 5e 02 97 be
       -0.24227996 0.38542813 -0.2546749 -0.29493994
0000f0 42 50 a3 be 11 db cc be 60 7a 89 be ae 02 8d be
       -0.3189717 -0.40010884 -0.26851177 -0.27541107
000100 80 04 1a be f3 04 23 bf 3b a6 a0 be 55 a1 ee be
       -0.15040779 -0.63679427 -0.31376824 -0.46607462
000110 b9 9d 6f be 44 36 85 3e 5a 1f 0d bf d0 a5 ae be
       -0.2340001 0.26017964 -0.55125964 -0.3411088
000120 9e dc a3 be 15 50 5e be 18 7b c4 be 88 17 c7 3c
       -0.32004255 -0.21710236 -0.38375163 0.024303213
000130 e7 47 a7 be 04 2c 05 bf c5 80 87 be 26 2b c4 bd
       -0.32672045 -0.5202029 -0.2646543 -0.095785424
000140 70 aa a0 be 1d 56 0b bf b1 8e 36 3f 39 7b 43 be
       -0.31380033 -0.54428273 0.7131148 -0.19089974
000150 31 af 73 be b4 3c 3c be a6 0b c0 be 4f a7 d4 be
       -0.23797299 -0.18382531 -0.37508887 -0.41533896
000160 97 77 46 be 14 0c b3 be b2 be 56 be 1c 91 85 be
       -0.19381557 -0.34970152 -0.20971182 -0.26087272
000170 ac 67 54 be 4e fc 81 be d1 79 b6 be cf ee 5b be
       -0.20742673 -0.25387806 -0.35639814 -0.21477817
000180 5b 3b 11 3f 67 a7 dd be ab 2a 14 be 45 78 87 be
       0.56731194 -0.4329178 -0.14469402 -0.26458946
000190 dc 22 e0 be 38 de ad be 0b 70 a1 be 0c 15 92 bd
       -0.43776596 -0.33958602 -0.31530795 -0.071329206
0001a0 45 dd 53 bd 84 be 43 be 89 84 8b be a9 f8 dd be
       -0.05172469 -0.19115645 -0.27249554 -0.43353775
0001b0 6e 84 eb bd 64 e5 f8 3e 5e ae e5 be 8f 3a 2b 3c
       -0.11499868 0.4861251 -0.44859594 0.010450973
0001c0 b4 58 8a be 4e b9 af ba 23 d5 5d be 71 36 54 be
       -0.270208 -0.0013406666 -0.21663336 -0.20723893
0001d0 a9 d2 9c be b1 c2 c6 be 69 6f e1 be e1 20 e3 be
       -0.3062947 -0.38820413 -0.44030312 -0.44361022
0001e0 30 9e 7e be 78 f1 3a be 46 4a ba 3d f3 a3 29 be
       -0.24865031 -0.18256176 0.09096198 -0.16566448
0001f0 c9 eb 40 be 88 de b1 be 5f af 25 bf 06 39 a2 be
       -0.18839945 -0.3474009 -0.6472072 -0.3168413

fc3.weight f4 [1, 128]
000000 3b bc 99 bd 02 0b be 3c ba 84 f9 bc 86 11 0b be
       -0.07506605 0.023198608 -0.030458797 -0.13580903
000010 a1 8d 11 3d 99 bd 8c 3c 0d 26 b1 3c d5 e9 82 3d
       0.03553546 0.017180251 0.02162459 0.06392256
000020 cb d6 9f 3c a7 90 8f 3d 00 0b bd 3c 26 92 f4 3c
       0.019511601 0.07010012 0.023076534 0.029854845
000030 75 ba 89 3b a8 88 94 3b a6 5a 80 bc d1 1c 78 3d
       0.0042031356 0.0045328923 -0.015668225 0.060574356
000040 6c b0 e5 bc 47 ad 8f bc 97 e4 92 bd e8 b4 db ba
       -0.028038226 -0.01753868 -0.07172506 -0.0016762288
000050 c0 6c af bb 46 fa c8 3d 07 3d 99 bd 74 bf 1f 3c
       -0.00535354 0.09813361 -0.07482343 0.009750236
000060 b6 bb 33 3c 31 1b 1b 3d 10 cd b3 bd 33 a4 d7 bc
       0.010970047 0.03786773 -0.08779347 -0.026323413
000070 06 72 cb 3d 38 70 69 bb eb ac ab bd 44 7e 05 bc
       0.099338576 -0.0035619866 -0.08382591 -0.00814778
000080 0d ef 73 bd 87 95 43 3d 9e fd 7d bc b3 a6 f5 bb
       -0.05955415 0.047750022 -0.015502362 -0.0074966787
000090 d3 7b 31 3d 26 3c 93 3c bb 0c 53 3b ed f2 81 3d
       0.04333098 0.017973017 0.0032203633 0.063451625
0000a0 55 fd 91 bc fe ed 8b 3d f8 02 78 3c a6 1f 5f 3d
       -0.017820993 0.06832503 0.015137427 0.05447354
0000b0 65 21 bc ba 97 57 cb 3c 09 79 c4 3b 64 22 e7 3c
       -0.0014353214 0.02482204 0.005995874 0.02821464
0000c0 ff c5 62 3d 7d 88 2c 3c 05 ef 34 bd 15 ce 1f 3c
       0.055364605 0.010530588 -0.04417326 0.009753724
0000d0 01 e8 89 3d d4 92 89 3c 45 22 1a 3d 6c 61 97 3c
       0.06733704 0.016793646 0.03763034 0.018479072
0000e0 21 46 e5 3c 47 f6 b8 3d 1c 6e af 3c a6 b2 47 3c
       0.027987542 0.09031349 0.021414809 0.012188589
0000f0 c9 6d d0 bb 70 f5 9d bd 26 ad c8 3c 3c d5 89 bc
       -0.0063607437 -0.07712829 0.024496626 -0.01682531
000100 01 cc 17 3a 20 6e 6c 3c 6e d5 e6 3c 41 52 da bd
       0.0005790592 0.014430553 0.028177943 -0.1066022
000110 79 cf 6d bd 2f 0c 8f 3d 03 33 19 bd f7 80 9d bc
       -0.05805919 0.06984746 -0.037402164 -0.019226534
000120 09 7a 23 bd 88 8b c1 3b 2a 4e 28 bb d9 ab f1 3c
       -0.039911304 0.005906526 -0.0025681355 0.029500889
000130 bd 93 d3 3c 85 67 bd bd d5 6d 78 ba 6f 43 12 3d
       0.025827283 -0.092482604 -0.00094768155 0.03570884
000140 90 77 bb bd 35 70 c7 3b 1e ad 29 3e 73 cb 45 bc
       -0.09153664 0.006086374 0.16569945 -0.012072432
000150 3c 44 e9 3c 9b bc c1 bc c9 6d a0 3d 6b 44 c3 bd
       0.02847492 -0.023649504 0.0783344 -0.09534534
000160 c8 41 6b 3b 05 b4 e6 bc d0 bf d2 bc f9 c9 fe 3a
       0.0035897363 -0.028162012 -0.025726229 0.0019438855
000170 0b a0 6a 3c ee 8b af bd b4 71 a8 3c c7 de 73 3c
       0.014320384 -0.08571611 0.02056203 0.014884657
000180 f2 c8 16 3e aa 68 8b bd cb 4f 39 3d f6 26 d3 ba
       0.14725092 -0.068070725 0.045242112 -0.0016109634
000190 e2 79 a7 3d a7 50 aa 3b d6 e0 ea bc 9e 0a 05 3d
       0.08177544 0.005197603 -0.028671663 0.03248083
0001a0 3f 1a 14 3d e5 12 44 bb 1f f6 d8 3c 53 fb 7d bd
       0.036157843 -0.0029918489 0.026484547 -0.06200726
0001b0 4c c8 b1 3c 48 81 0e 3e c7 4a a7 3d cf c4 f1 3c
       0.021701954 0.13916504 0.081685595 0.029512791
0001c0 93 9c 34 3c bf 4d e6 3c 62 51 54 3c 03 c1 6a bb
       0.011023658 0.028113244 0.012958856 -0.003582061
0001d0 4c 07 59 bc 69 ed 96 bd a0 b0 6f bd 8f 5c 60 bb
       -0.013246369 -0.07369501 -0.058518052 -0.0034234857
0001e0 a9 f0 49 3c 90 24 24 3c 6a d0 d0 3c e0 35 c9 3b
       0.012325444 0.010018483 0.025490005 0.0061404556
0001f0 73 1c 9a 3b 28 19 8e bd e1 0f b9 bc fc 1c 3e 3d
       0.0047030984 -0.06938392 -0.02259058 0.04641436
