code/checkpoint_actor_best.pth (torch_old, 92444 bytes, 18 tensors)

bn1.weight f4 [33]
000000 8c fa 08 3f 2a f9 dc 3e 69 f4 b3 3e b4 47 fa 3c
       0.53507304 0.43158847 0.35147408 0.030551769
000010 32 cd ce 3d 5b 52 f7 3d 28 5b 6d 3e 8a fe 99 3e
       0.10097732 0.12076255 0.23179305 0.3007701
000020 63 ce d3 3d 0f 8f 4c 3e 5d f8 1d 3e 9f d5 17 3e
       0.103420995 0.19976448 0.15426774 0.14827584
000030 56 8f a2 3d c2 67 04 3f dc f5 b9 3e 0c be 2c 3f
       0.079374954 0.5172082 0.36320388 0.6747749
000040 8d 54 da 3d 21 03 df 3d c6 3f 81 3c cc a0 7a 3d
       0.10660658 0.10889269 0.01577748 0.061188504
000050 2f 25 98 3e f7 ee 94 3e b9 71 b8 3d f2 cd 2a 3f
       0.2971587 0.29088566 0.09006066 0.667205
000060 aa b3 8f 3e 7d 2d fb 3e 6a 8a 80 3f 90 21 14 3d
       0.2806676 0.49058142 1.0042241 0.03616482
000070 f9 28 e8 3e 90 30 bf 3e 12 36 9c 3e 94 97 6e 3f
       0.4534376 0.37341738 0.30510002 0.9320004
000080 1e 32 06 3f
       0.5242022

bn1.bias f4 [33]
000000 7b a3 ea bd 7b 68 5b bd 56 45 cc bc a0 b3 00 3e
       -0.11456963 -0.053566437 -0.024935406 0.12568521
000010 b3 cd 88 3c e0 8b bf bc ab b1 3c bc 84 d3 b9 bd
       0.016699648 -0.023382127 -0.011516969 -0.090735465
000020 c5 60 1d 3d ea a4 cf bd 4d 4b 51 bb 2e 56 1a 3c
       0.038422365 -0.10138877 -0.0031935752 0.009419961
000030 44 70 60 3d 76 6b 51 3b 95 66 c9 bd ba c7 81 3c
       0.054794565 0.003195492 -0.09834019 0.015842307
000040 ab cb e3 3d 49 c4 cb 3c ea 13 8d 3d 5c 51 0d 3d
       0.11122831 0.02487387 0.06888564 0.03450142
000050 31 c0 93 3d 35 81 b0 3b 51 3c 82 3b 0c 37 cb b8
       0.07214392 0.0053864964 0.0039744754 -9.6900476e-05
000060 11 98 98 bd 8e ef 54 bb ba a5 b6 bd d7 d3 16 be
       -0.07450879 -0.0032491419 -0.089183286 -0.14729248
000070 76 17 73 bd 43 ff 41 3e 35 46 2a be 64 b0 0b be
       -0.059348546 0.18945031 -0.16628344 -0.13641506
000080 4c ba b8 bc
       -0.02254977

bn1.running_mean f4 [33]
000000 89 7a 9c be a2 bd 30 c0 26 13 71 be ab a0 6a 3f
       -0.30562237 -2.7615743 -0.23542461 0.9165141
000010 d5 15 20 bd 33 67 ef bb d9 33 14 bd 40 60 15 bc
       -0.03908332 -0.0073060035 -0.03618226 -0.009117186
000020 ed 16 c6 3c 11 f0 b7 3b 29 83 72 3c d0 84 48 3b
       0.024180854 0.005613335 0.014801779 0.003059674
000030 ec 2f 84 3c 20 7b d3 be 01 48 30 c0 13 8e 9d be
       0.016136132 -0.41304874 -2.7543948 -0.30772457
000040 0d 39 02 bb 69 61 2f 3b e9 26 4f bb dd 9b 92 be
       -0.001987043 0.0026760942 -0.0031608886 -0.2863454
000050 fa 9b b6 3d 06 cd 13 3d 17 c4 93 3c f3 a9 93 3d
       0.08916469 0.036084197 0.018037839 0.072101496
000060 58 be af 3d 18 0f 84 3c 64 c9 ab be fc ff 7f bf
       0.08581227 0.016120479 -0.33552086 -0.99999976
000070 39 81 27 3c 00 00 00 00 fc ff 7f 3f 00 00 00 00
       0.01022368 0.0 0.99999976 0.0
000080 9f 5b a8 3d
       0.082206

bn1.running_var f4 [33]
000000 66 15 6b 40 d9 84 74 3e 91 e0 8b 40 66 9c b5 3a
       3.673181 0.23878802 4.371163 0.0013855814
000010 3d 42 75 3d 32 88 93 3b 96 32 bb 3d 46 e6 84 3e
       0.059877623 0.0045023197 0.09140508 0.25956935
000020 f3 69 60 3d 38 04 d0 3d 73 cc 05 40 58 06 27 3f
       0.05478854 0.10157055 2.0906036 0.65244055
000030 16 ff 25 40 41 e0 96 41 8a e1 86 3f de 7d b3 41
       2.5936942 18.859499 1.0537579 22.436459
000040 02 50 b1 3d 88 5a 83 3e 83 31 87 3d c8 36 02 3f
       0.086578384 0.25655007 0.066012405 0.5086484
000050 fb 52 01 40 11 83 4f 3f 1e 5b f6 3e d8 3d fd 40
       2.0206897 0.81059366 0.48116392 7.9137993
000060 7d 48 52 40 69 19 13 41 c8 be ff 41 04 00 00 00
       3.2856743 9.193704 31.968155 6e-45
000070 27 03 ff 41 04 00 00 00 04 00 00 00 04 00 00 00
       31.87654 6e-45 6e-45 6e-45
000080 2c 02 ad 3e
       0.3379072

fc1.weight f4 [128, 33]
000000 48 2c 65 bd fc 53 40 3d 74 9e 94 3c 4c f4 b0 bc
       -0.055950433 0.046955094 0.018141963 -0.021600865
000010 be 02 83 bd 00 8e cd 3c 0b 68 64 3c 92 2b a2 3c
       -0.063970074 0.025092125 0.013940821 0.019796167
000020 71 e7 32 bd db 0f 7f bb d3 08 18 bc 03 31 1b 3d
       -0.04367775 -0.0038919363 -0.009279448 0.037888538
000030 31 e1 fb bc 03 55 9f bd 1a a8 16 bc a0 97 1b be
       -0.030747028 -0.077798866 -0.009195352 -0.15194559
000040 0a 8f e8 bc dd 9c 52 bd 16 1b 81 bd 64 9e 13 bc
       -0.028388519 -0.051419128 -0.06303994 -0.009009931
000050 99 c2 58 bd 1c b8 79 bc 5d f3 17 39 6c 6e 57 bc
       -0.052919958 -0.015241649 0.00014491142 -0.013148885
000060 3c e4 22 3d c6 6b 70 bd b7 52 0b 3c 65 c7 9b 3d
       0.039768443 -0.05869653 0.0085036075 0.07606391
000070 68 a2 83 3e ca 6d 21 be 71 39 13 3d 6e a7 01 3e
       0.25709844 -0.15764537 0.035943452 0.12661526
000080 17 32 f8 3d 54 50 fd bb 5f 5e 50 3d 84 9a 2a be
       0.12118929 -0.007730523 0.05087125 -0.16660506
000090 c7 ab 52 3d 0b bb d1 3c 21 63 1a 3d 26 4e a7 bd
       0.05143335 0.025601884 0.037692193 -0.081692025
0000a0 f6 62 03 3d 80 91 58 bd 67 b2 46 bd 74 0b d3 bd
       0.0320768 -0.052873135 -0.04850998 -0.10304919
0000b0 a5 b2 e9 3c 0f 8a 54 be 4a 48 91 3d 6c d1 f3 3d
       0.028527567 -0.2075579 0.07093866 0.119051784
0000c0 ec cc 6b 3b 77 fa 61 bd 13 71 b4 ba 81 dc 7e 3d
       0.0035980297 -0.055170503 -0.0013766609 0.062222008
0000d0 4f 49 85 3b ff 34 30 3a e9 c6 9b 3c 8f 62 24 3e
       0.004067577 0.0006721764 0.019015746 0.16053222
0000e0 77 16 88 bc 2f 9a 41 3e a7 35 07 be 98 9a a4 bb
       -0.016612275 0.18906473 -0.1320406 -0.005023312
0000f0 b7 7f 55 3d 08 73 b6 3c f1 a6 5a bd 38 6e 10 3e
       0.05212375 0.022271648 -0.053381864 0.14104545
000100 91 ec 0e 3d c5 b1 06 3d c5 e5 19 bc 68 f5 50 bc
       0.034893576 0.032884378 -0.00939316 -0.012753822
000110 c6 23 4b be 80 c0 c5 bd 40 0c 9c bd cf e3 81 bd
       -0.19837865 -0.09655857 -0.07619524 -0.06342279
000120 ea ec bb bb e5 92 e3 3c 7e 38 85 3d 34 3c bd 3c
       -0.0057350295 0.027780006 0.06504916 0.023099996
000130 ba ce b4 3c 5e e1 46 3d 83 1d fe bd fa f9 47 3b
       0.022071231 0.04855477 -0.12407973 0.0030513988
000140 af b4 59 bd f5 0e d0 3d 65 26 62 bd 8f 69 2e bc
       -0.05315083 0.10159103 -0.055212397 -0.010645284
000150 ac 5e 1d 3c 4a 35 bd ba 31 93 7f 3d c6 9b b3 3b
       0.009605091 -0.0014435437 0.062396232 0.005481216
000160 2b ee ea bd c2 a9 d9 bc 31 8e 04 be 9a 8a 62 3d
       -0.11471208 -0.026570205 -0.12944867 0.055307962
000170 14 a7 d6 3c 56 25 23 3e 4e f0 f1 3d a7 db a2 bd
       0.026202716 0.15932211 0.118134126 -0.079520516
000180 a8 d1 a9 3d 44 8e 0d 3e 56 b2 be 3c 54 7f 99 bd
       0.08291942 0.13823801 0.023278397 -0.07494989
000190 4f 48 a9 3c 1d a2 7e bc 68 36 f8 bc c3 4f d9 ba
       0.020664362 -0.0155415805 -0.03029938 -0.0016579557
0001a0 39 5f 18 be ff ca 21 3c a6 36 8d bd 6f bb a0 3d
       -0.14880075 0.009875058 -0.06895189 0.0784825
0001b0 0d bf 95 bd 2b 8f fd bd f6 b6 30 3e d9 b3 66 3e
       -0.07311831 -0.12380823 0.17257294 0.22529544
0001c0 47 84 61 bd f3 fe 9b 3d 58 12 42 3c 6f bc 60 bb
       -0.05505779 0.07616987 0.011845194 -0.0034292003
0001d0 93 d9 0d bc 85 fc 1a be 5a b6 c2 bd 95 2e 44 bd
       -0.008657831 -0.15135391 -0.09507437 -0.047895987
0001e0 61 38 9e 3d 65 33 56 3d 50 a7 8f bd 96 50 f4 3d
       0.07725597 0.052295107 -0.07014334 0.11929433
0001f0 fb ae f0 3d f6 9b 78 3c 6d d6 85 bc 73 f3 14 bc
       0.11752125 0.015173903 -0.016337598 -0.009091246
000200 cc 3a 80 3d 8f 2d 31 bc 0c af b1 3c 0a ed 99 bd
       0.062612146 -0.010814085 0.021689914 -0.07515915
000210 d9 f7 03 bb e7 09 52 bd 43 66 7a 3d 3e b9 06 3e
       -0.0020136742 -0.051278975 0.06113268 0.13156602
000220 e3 b3 8b 3c 7f bb dd bd 83 68 cb 3d f8 cb a6 bd
       0.01705355 -0.10826778 0.099320434 -0.08144373
000230 fd f4 c3 3d 63 2d 02 bd 93 b9 2e be 89 9c c2 3d
       0.09568212 -0.031781565 -0.17062978 0.09502513
000240 f2 81 e3 ba 37 4b 9e bb 7a e0 04 bd 6e 5a b5 bc
       -0.0017357452 -0.0048307437 -0.03244064 -0.022137847
000250 82 0b 0f 3d c8 10 52 3d 48 54 32 3e 62 aa b0 bd
       0.034923084 0.051285535 0.17414963 -0.08626248
000260 78 43 35 be 76 00 10 3d 6d e9 a6 bc 8e 90 59 3d
       -0.17701519 0.03515669 -0.020374978 0.053116374
000270 50 a9 58 bd 49 48 af bd bc cb d4 3c 64 41 1d bd
       -0.052895844 -0.08558709 0.025976054 -0.03839244
000280 b0 3d f2 bd bf 91 48 3d 34 4d 65 3a c2 4a fc bb
       -0.11828172 0.04896712 0.0008747161 -0.0076993415
000290 26 dd 1f 3d 32 85 39 bd 52 5d a6 3c 25 a5 da 3d
       0.039029263 -0.04529304 0.02030817 0.1067603
0002a0 9f 5c 6e bc 63 1e 8e bb 87 de 56 3b fc fd 83 3c
       -0.01454845 -0.0043371185 0.0032786445 0.01611232
0002b0 3d 0c 90 bc 92 5c 0e 3d 36 6b 0f bd b7 80 da bc
       -0.01758396 0.03475625 -0.035014354 -0.026672704
0002c0 15 74 03 3c da a1 b6 3c 1e 32 b1 3d 15 6a 8e 3c
       0.008023282 0.022293974 0.08652137 0.017384568
0002d0 30 f6 85 bc 96 33 67 bd 53 fd fe 3c e6 83 bb bc
       -0.016352743 -0.05644568 0.031126654 -0.022890043
0002e0 35 62 29 3d f9 c9 80 38 1e 8f 14 ba a8 56 5c 3d
       0.041353423 6.141136e-05 -0.0005667078 0.05379358
0002f0 7c 05 d6 3c ee cb 0a 3b 03 21 34 bc 76 55 ca 3d
       0.026125662 0.002117868 -0.010994199 0.09879582
000300 42 7c 99 3d 71 a9 4c be 75 54 18 be 6f ca e0 3d
       0.074944034 -0.19986512 -0.14875968 0.10976111
000310 8f 52 5d 3d a6 d7 74 3e 17 5a 8d bc 0f aa 72 3d
       0.054033812 0.23910388 -0.017254872 0.05924421
000320 2f 30 5e be 24 2c 64 bc e6 46 4d bd 1e 8c ce bc
       -0.21698068 -0.01392654 -0.050116442 -0.025213297
000330 3a bb 09 3d a0 fa be 3c 78 85 00 3d be ca 49 bc
       0.03362582 0.023312867 0.031377286 -0.012316404
000340 52 0d dc ba 7c 11 4d ba 29 80 29 be 55 8e 29 3c
       -0.0016788638 -0.0007822735 -0.16552795 0.010348876
000350 a0 c1 33 be 43 4a d9 3d 61 ad 0d 3c 29 1f 88 bc
       -0.17554331 0.106098674 0.008647294 -0.01661642
000360 1d 18 bf bd 75 23 ed 3d af 8e b3 bc 2d 1d c2 bb
       -0.09330771 0.115790285 -0.021918623 -0.005923888
000370 11 93 00 3d 11 4c 2e bb f1 6a f8 bc 25 c4 27 3d
       0.031390253 -0.0026595632 -0.030324431 0.040958542
000380 d1 0e a8 3c 86 f5 10 bd 67 07 80 bd ae 0b 18 3e
       0.020514878 -0.0353904 -0.06251412 0.14848205
000390 8a 73 d2 bb 24 f6 d4 bd d1 10 a9 3b 54 9f 36 3c
       -0.0064224647 -0.1039851 0.0051594754 0.011146385
0003a0 f7 7e e7 3c ad d2 4a 3d 33 19 cb bd b1 83 91 3d
       0.028258784 0.049517322 -0.09916916 0.07105196
0003b0 a0 89 50 bc c1 1c 10 bd 60 9c 0b bc 26 0e 90 3c
       -0.012728125 -0.03518367 -0.008521169 0.017584872
0003c0 b9 74 88 bd fb 2c dc 3c 48 c0 97 3c 4a cb 3d 3d
       -0.06662888 0.026876917 0.018524304 0.04633645
0003d0 ce c3 1b be ae 84 81 bd 2b b0 e2 3d e6 f8 3e bd
       -0.15211412 -0.06324135 0.110687576 -0.046624087
0003e0 67 1d 3d 3c 54 03 ec bd 9b b8 c2 3d 02 34 0f bc
       0.011542655 -0.11524072 0.09507867 -0.008740427
0003f0 2e 5f 1c bd b0 5f c7 3a 7a d9 96 bc af 32 cd bc
       -0.038176708 0.0015211012 -0.018414248 -0.025048582

fc1.bias f4 [128]
000000 66 0d f0 bd c1 9c 69 3a a6 b9 29 3d 5c 66 b4 bd
       -0.117213055 0.0008911603 0.041436814 -0.08808586
000010 49 a1 b4 bd 2d f7 75 bd a2 5a 2b 3e 68 d5 80 bd
       -0.08819825 -0.06005018 0.16733792 -0.06290704
000020 ad e3 c5 3b c9 c1 26 be 0a b1 b8 3c 97 96 a0 bc
       0.006039104 -0.1628486 0.022545356 -0.019603057
000030 e1 44 00 be 5e 81 cd 3c ed de e3 3c f5 7a d2 bd
       -0.12526275 0.025086101 0.02781626 -0.102773584
000040 b7 f3 e4 bc a7 d2 da bc df 20 a9 bc 1b 86 35 be
       -0.027948244 -0.026711775 -0.020645557 -0.17726938
000050 43 08 16 be e9 db af 3d 3c 8d ee 3b db cc bb bd
       -0.14651589 0.085868664 0.00728002 -0.091699325
000060 af b1 26 bd 33 c1 bf bd 0e 1d 0d 3d d9 fb 05 3e
       -0.040696796 -0.09363022 0.034451537 0.13084354
000070 77 9f 83 bd a4 37 34 3d d7 10 c7 3d a8 28 51 bd
       -0.064269 0.043998376 0.09720009 -0.051064163
000080 ca 72 3d 3c 33 3e 67 bc 4c df d3 3c 83 da 93 bd
       0.011563012 -0.014113951 0.025863312 -0.07219412
000090 e7 ee 63 bd ab 99 81 3c 18 b1 27 bc 1c c3 16 be
       -0.055647757 0.015820345 -0.0102350935 -0.14722866
0000a0 85 b5 b4 3d c0 37 97 bc 47 f6 9a 3d e3 19 e1 3d
       0.088236846 -0.0184592 0.07566505 0.109912656
0000b0 35 26 5f bd 5b 87 70 bd b6 fb 2c bc 91 a4 00 bd
       -0.054479796 -0.058722835 -0.010558059 -0.031406943
0000c0 ca 9c 65 bd 74 14 6b 3d 15 2b 99 bd 93 db 19 3e
       -0.05605773 0.057392552 -0.0747892 0.15025167
0000d0 bf 34 c7 bd 6b f0 4a 3d 52 98 d7 3d e6 c8 58 bc
       -0.097268574 0.049545687 0.105271 -0.013231492
0000e0 4b ab ce 3c 61 8d d4 3c a4 04 30 3d 50 6e a5 3d
       0.025228163 0.025946321 0.042973176 0.08077681
0000f0 73 8d 37 3e 5b 06 d0 bd 2c 3f 4a 3e d0 5e 1e 3c
       0.17925052 -0.10157462 0.1975066 0.00966616
000100 af f1 a1 3d 1c 81 2a 3d fb 7e fa 3c 64 3f 56 3d
       0.079074256 0.041627035 0.030578127 0.052306548
000110 be 75 78 3d 12 bb 02 3e e8 90 5a bd 9d 1a b4 3c
       0.060659163 0.12766674 -0.05336085 0.021985346
000120 ad 7c 4e bd cb 95 85 3d 1c c2 fd 3d 3e a7 ab bb
       -0.05041187 0.06522711 0.12390539 -0.0052384427
000130 f4 77 60 3d 26 c1 be 3d 54 13 c4 3d 63 8d 30 be
       0.054801896 0.09314184 0.09573999 -0.17241435
000140 37 67 af 3d dc fd 94 bb 01 f9 35 be 06 cc eb 3d
       0.085646085 -0.004546864 -0.17770769 0.11513524
000150 cb 73 86 3d 46 5d 4b 3d 5c 1c 47 be d3 34 f3 bc
       0.065650545 0.0496495 -0.19444412 -0.029688274
000160 a1 10 ce bd 03 e1 46 3e 58 0a de bd 22 f2 ed 3d
       -0.100617655 0.19421773 -0.10841817 0.11618449
000170 07 08 1a bb 7d 0e 60 3e 21 d3 dc 3c 0c 35 f2 bd
       -0.002350332 0.21880527 0.026956143 -0.11826524
000180 a2 6a 62 bd e2 b2 1a 3d da a7 d9 bd 73 a8 a3 bd
       -0.055277474 0.037768252 -0.10627718 -0.079911135
000190 5d 63 af 3a a0 da 71 bd 2f 46 dd bd bc 4d e2 3b
       0.0013381053 -0.059046388 -0.10804402 0.0069062393
0001a0 84 18 be bd 89 5e fc 3c 29 2c ed 3d 8f b7 61 3e
       -0.0928202 0.030806797 0.115806885 0.22042678
0001b0 df e0 8f 3d 72 c0 be bc 14 12 80 3d 60 90 f5 bc
       0.07025313 -0.023285124 0.06253448 -0.02997607
0001c0 19 1e 0e bc 73 6c 05 be 3c e5 26 bb d5 4a dd 3d
       -0.008674168 -0.13029651 -0.0025466224 0.10805289
0001d0 c2 30 d9 bd 8a dc 8a bd 28 8b d7 bd d5 8f 91 3c
       -0.10605003 -0.06780346 -0.10524589 0.01776878
0001e0 d3 3e 02 3d fd 4c f9 3d f2 e3 3a bd 1a ef 1f 3d
       0.031798195 0.121728875 -0.04562754 0.039046384
0001f0 2b d4 bb 3d 5b e8 ac 3d c1 51 08 be bb 92 5d 3d
       0.09171327 0.08442756 -0.13312437 0.05409501

bn2.weight f4 [128]
000000 cb 97 5b 3e ec 46 59 3e f9 59 e3 3e 15 c7 bc 3e
       0.21444623 0.21218461 0.4440458 0.36870638
000010 07 19 ac 3d 74 a8 18 3f f9 47 0d 3f b0 b3 be 3e
       0.08403211 0.5963204 0.55187947 0.37246466
000020 76 1b 0d 3f 34 f7 41 3f f3 6d bf 3e 5e 63 91 3e
       0.5512003 0.7576783 0.37388572 0.28396124
000030 76 bd ac 3d fe 92 92 3e 39 b9 be 3e a2 54 b6 3e
       0.08434574 0.2862777 0.3725069 0.35611445
000040 b8 3d d0 3e b4 0a 16 3f c7 af 03 3f 6d 44 4c 3f
       0.40672088 0.5861008 0.5144009 0.7979191
000050 9c a5 75 3f d2 9a b9 3e 55 e7 d1 3e 94 19 05 3f
       0.95955825 0.3625093 0.40996805 0.51992154
000060 31 a8 64 3e 84 d1 2a 3f c8 61 bb 3e 00 22 15 3e
       0.22329785 0.66725945 0.3659804 0.14563751
000070 18 d8 5d 3e 4a c4 8c 3e 5b bd 12 3f a8 95 44 3f
       0.21664464 0.27493507 0.57320184 0.7679086
000080 0b cb 41 3f 18 77 ae 3e c8 9a b1 3e 10 dd c6 3e
       0.75700444 0.34075236 0.346884 0.38840532
000090 40 70 94 3e 4c d7 04 3f 74 51 ba 3e f9 0b 4a 3f
       0.2899189 0.51891017 0.3639027 0.7892452
0000a0 c2 1f 29 3e 40 eb 97 3e 78 37 38 3f 02 bc cf 3d
       0.16516021 0.2967167 0.7195964 0.101432815
0000b0 a0 5a 0d 3f e9 16 3b 3f df 59 64 3f 24 09 2b 3f
       0.5521641 0.73081833 0.8919963 0.6681082
0000c0 f5 2d a5 3e 99 cc 44 3f ce 56 16 3f 41 99 86 3e
       0.32261625 0.7687469 0.58726203 0.26288798
0000d0 f2 72 01 3f f8 bd 0b 3f c6 6e 2a 3f b1 a0 18 3f
       0.5056602 0.54586744 0.66575277 0.59620196
0000e0 3f e0 35 3f f2 fa 12 3f 4d c7 cf 3e 73 d6 22 3f
       0.710453 0.5741416 0.40581742 0.63608474
0000f0 64 f9 1a 3f 20 f8 76 3e 10 8f 0b 3f 26 57 b7 3e
       0.6053679 0.2411809 0.5451517 0.35808676
000100 f8 e3 a4 3e ed 34 fd 3e a9 f1 16 3f 55 63 fd 3e
       0.32205176 0.49454442 0.58962494 0.49489847
000110 a7 db 89 3e 53 cd 2c 3f 18 00 5a 3f 9d 4a fc 3e
       0.26925394 0.675008 0.85156393 0.49275675
000120 77 b0 26 3f 94 03 75 3e be 66 5b 3f af 4c 13 3f
       0.65113014 0.23927146 0.8570365 0.57538885
000130 65 fb 4a 3f 56 7b 27 3f fe 87 a1 3e a3 6f fe 3e
       0.7928985 0.6542257 0.31549066 0.49694547
000140 5f 9a 50 3f 27 1c 4d 3f e2 eb 53 3e f3 02 3e 3f
       0.8148555 0.8012108 0.20695451 0.7422325
000150 9c a8 66 3f 5f e2 23 3f e6 93 59 3e 44 ba eb 3e
       0.9010103 0.6401729 0.21247825 0.46040547
000160 ec 75 c9 3e a6 3a 5b 3f ac 06 8f 3e 2e 81 19 3f
       0.3934778 0.85636365 0.27934778 0.5996274
000170 de 6c 1b 3f 31 12 05 3f 5b e2 58 3f 7b c4 f7 3e
       0.60712993 0.5198088 0.8472039 0.4839209
000180 27 b5 59 3e 02 be 92 3e 54 ba a8 3e 88 d4 1f 3f
       0.2126051 0.2866059 0.32954657 0.6243367
000190 f4 5a 1d 3f 4d bb b8 3e 5d 41 97 3e 0d 3d 3a 3f
       0.6146691 0.360804 0.29542056 0.72749406
0001a0 e7 0f 62 3e 99 56 53 3f 50 2d f5 3e ca 30 57 3f
       0.22076379 0.8255401 0.47886133 0.8405882
0001b0 10 30 6a 3f 69 41 0b 3f fe 7c 39 3f 0f c9 8e 3e
       0.9147959 0.5439668 0.7245635 0.2788777
0001c0 f5 35 3c 3f fc 04 4d 3f af b0 e4 3e 27 a5 16 3f
       0.7351983 0.8008573 0.4466605 0.5884575
0001d0 8a 3c dd 3e c8 da 40 3f 25 b5 15 3f da d5 29 3f
       0.4321025 0.75333834 0.5847953 0.66341937
0001e0 10 42 a1 3e 25 07 63 3f 39 18 2d 3f de 06 25 3f
       0.31495714 0.88682777 0.67615086 0.64463603
0001f0 63 a2 27 3f 4c e4 3f 3f 75 e2 5f 3f ed fd c9 3e
       0.6548216 0.7495773 0.8745492 0.39451542

bn2.bias f4 [128]
000000 ca d9 88 3e 53 c4 27 bd 65 7f 1f 3e a6 2d 9a 3e
       0.2672866 -0.040958714 0.15575941 0.30112952
000010 b5 86 d0 3e b9 af b6 bd b6 fa d2 3c 4a 13 13 3d
       0.40727773 -0.08920235 0.025754314 0.035907067
000020 52 2a 02 3d 4e 4c 78 3e c6 06 f1 3d 37 92 79 3e
       0.03177864 0.24247858 0.1176887 0.24372183
000030 81 eb 7b be 7e 5c 9e bd 62 52 df 3e 1f cc a8 3d
       -0.24601556 -0.07732485 0.4361754 0.08242058
000040 a8 60 06 be 6b f1 cc be d7 59 38 3d 47 9d 62 3e
       -0.13122809 -0.40027937 0.045007553 0.22130309
000050 ad d7 4c 3e 94 4a b5 3e a7 61 63 3b 54 65 90 3e
       0.20004149 0.3540846 0.0034695657 0.28202307
000060 d7 a7 f2 bd 2c 5d 1d 3e cc 35 9c 3e 56 b4 af 3e
       -0.11848419 0.15367573 0.30509794 0.34317273
000070 38 f2 e5 bc a3 ed 9c 3e 89 41 fb bd 03 22 5b 3e
       -0.0280696 0.30650052 -0.12268359 0.21399693
000080 ce 3d 25 3e 47 0f 0a bd 62 1b 56 3e 96 52 9e bd
       0.16136858 -0.033705976 0.20908883 -0.07730596
000090 a7 f1 6b 3e b6 41 ba bc 7e 43 08 3d 71 7b 68 bd
       0.23041402 -0.022736412 0.03326749 -0.056758348
0000a0 d7 7c 46 3e 2f ac b5 3e cb 69 fd 3d 7a a2 36 bc
       0.1938356 0.35482928 0.12373694 -0.011147136
0000b0 98 0f 2b 3e 73 ef a8 be 33 e0 ad bd 6c 8c be bd
       0.16705167 -0.32995185 -0.08490028 -0.09304127
0000c0 01 90 e0 3e 0d df 41 3e db d5 27 3d 06 a0 d6 be
       0.43859866 0.18932743 0.040975433 -0.41918963
0000d0 fd f0 95 3e 9a 34 8e 3d 43 c8 f1 bd 22 a2 69 3c
       0.29285422 0.06943627 -0.11805775 0.014259847
0000e0 30 5a 0f be 4b 19 e3 3d e5 8f 5a be 2a a6 8e 3d
       -0.13999248 0.110888086 -0.21343954 0.06965287
0000f0 96 63 e2 3c fe b3 8e 3e af a0 43 3e 10 1a 08 3e
       0.027635377 0.27871698 0.19104265 0.13291192
000100 79 17 0e 3e 34 fb 61 bc 7d aa ad 3d 9b 2c 43 3d
       0.13876142 -0.013792802 0.08479784 0.04764996
000110 91 ea c0 bd f5 e7 1c 3e 77 a6 9e bd 0c 84 27 be
       -0.0941974 0.1532286 -0.077465944 -0.16358966
000120 5b 51 b4 bd c6 7b c2 3e 46 1a 92 bd 2c 12 58 3e
       -0.0880458 0.37985057 -0.071339175 0.21100682
000130 f3 b7 8a 3e 2e 59 fd 3d 48 e9 b9 3d 18 01 0d be
       0.27093467 0.12370525 0.09077698 -0.13769948
000140 d2 f4 89 3d 35 1f 9f 3d ff 07 86 3e 5f 08 4d 3e
       0.06736149 0.07769624 0.26177976 0.20022725
000150 fb dd 0c bc ad ca 17 3e ba 19 f8 bd 0c 54 d3 3d
       -0.008597846 0.14823408 -0.12114282 0.10318765
000160 6b 62 75 3c 3f 58 11 3e 96 3b 93 3e a1 a8 4d 3e
       0.014977078 0.1419382 0.28756398 0.20083858
000170 b8 67 17 3e 6d 59 11 3e ad 41 08 3e 7e ff 4a bd
       0.1478566 0.1419427 0.13306303 -0.049560063
000180 df e2 89 be 22 0e 14 3e 18 37 11 be a9 d2 4b 3e
       -0.269309 0.14458516 -0.14181173 0.19904579
000190 c3 28 53 be 74 34 87 3e 33 06 a8 be 8d 1e 45 3e
       -0.20621018 0.26407206 -0.3281723 0.19249935
0001a0 c8 bd 89 3e 32 ac 4c 3b c8 7d 64 3e 27 21 b8 3d
       0.26902604 0.0031230566 0.22313607 0.08990698
0001b0 30 f5 1e 3e 7c d6 80 3e 26 a8 74 3e 57 65 42 3e
       0.15523219 0.2516364 0.23892269 0.1898397
0001c0 a0 fd 6e 3e d4 a7 6e 3e 12 3e f3 3d 0f 51 e1 bd
       0.23338938 0.23306209 0.11877073 -0.11001789
0001d0 0d ed 22 3e 7d 83 58 be cb fa 3a 3e e5 4b 49 be
       0.1591074 -0.21143909 0.18259732 -0.19657858
0001e0 e1 1f 87 3e 5b be 3e 3b 3a 2c f8 bd 72 f8 9f 3e
       0.2639151 0.002910516 -0.121178105 0.31244236
0001f0 0f 9f 14 3c 87 b9 82 3b aa b4 df 3e 94 15 4f 3e
       0.009071126 0.0039894017 0.43692523 0.20223075

bn2.running_mean f4 [128]
000000 9c 40 09 37 f0 22 f5 3c ec 03 8a 3c 2b 14 da 3c
       8.180879e-06 0.029923886 0.016847573 0.026620945
000010 2c 0b f9 3c f1 5d e7 3c 2e 19 6a 3e 96 ec 5e 3d
       0.030400835 0.028243037 0.22861168 0.054424845
000020 d4 0c 4b 3d d4 ad 43 3c 1f 7a ad 3d c8 f6 0a 3d
       0.04957278 0.011943299 0.084705584 0.033926755
000030 57 28 89 36 8d 23 ef 3d 01 db 86 3d 23 e4 35 3c
       4.0876143e-06 0.11676703 0.065847404 0.011101755
000040 f7 c6 99 3c 6e 55 e5 3d 6c 65 8f 3d 04 00 00 00
       0.018771632 0.11197935 0.070017666 6e-45
000050 7d c5 d2 3c e1 de 84 3d b2 97 26 3d 02 da b8 3c
       0.025728935 0.06487823 0.04067201 0.022564892
000060 d6 08 b0 3c f1 d2 e3 3c 37 92 4f 3d 71 ac 22 3e
       0.021488588 0.027810546 0.05067655 0.15886094
000070 eb fd 55 3d cd 65 75 3d f4 a9 0d 3e 2f d9 84 3d
       0.05224411 0.059911538 0.13834363 0.06486737
000080 cd 35 eb 3c 8a d8 0b 3c 47 e8 e4 3d 85 34 ac 3b
       0.028712178 0.008535514 0.11177116 0.0052552843
000090 42 fb 56 3b 8e 36 81 3d e3 3d 14 3c 4a bd 89 3c
       0.003280357 0.063092336 0.009047958 0.016813893
0000a0 be 84 97 3d 29 94 85 3c 27 da 02 3e dc e6 90 3e
       0.073983654 0.016306 0.12778531 0.28301132
0000b0 44 41 f5 3d c5 cb 63 3d 0b 74 82 3d 46 89 4b 3c
       0.11975339 0.05561425 0.0636979 0.012422865
0000c0 7a 31 7e 3d 32 95 07 3e ae 3c 94 3c 33 cb 46 3e
       0.062058903 0.13240507 0.01809534 0.19413452
0000d0 47 9d 4c 3c e6 57 d1 3d 19 d2 26 3e 0b b5 e4 3d
       0.01248867 0.102218434 0.16291083 0.11167344
0000e0 25 69 c0 3d 1b 63 c5 3c 88 47 60 3d 29 b0 f4 3d
       0.09395055 0.024095109 0.054755718 0.119476624
0000f0 d0 7e 88 3e ea ce 45 3c 6f d8 79 3e 94 2f b2 3c
       0.2665925 0.012073258 0.24398969 0.021751203
000100 41 44 89 3d 59 dc 85 3d ea 30 e6 3d a9 84 b5 3d
       0.067024715 0.065361686 0.11239798 0.088631935
000110 bd 28 9b 3d ac 77 0f 3e 9a 26 bf 3d b7 a8 fe 3d
       0.075761296 0.14010495 0.093335345 0.124345236
000120 55 2e 35 3d 6f af 84 3d 7a ee 10 3e 5a e0 ee 3d
       0.04423364 0.06478774 0.14153472 0.116638854
000130 76 4a 8c 3d 3a 0e ca 3d 29 38 f0 3d f2 9c c5 3c
       0.0685014 0.09865995 0.11729462 0.024122689
000140 73 55 9d 3d 75 9b fd 3d 1b c5 15 3a 08 2e 18 3e
       0.07682314 0.12383167 0.000571327 0.1486131
000150 10 27 dd 3d c6 a8 82 3d 1c 71 7b 39 a2 c7 01 3e
       0.10798466 0.06379847 0.00023979362 0.1267381
000160 09 f9 b4 3b 0a a6 8b 3e d1 86 7f 3b 14 e7 52 3e
       0.0055228514 0.27275115 0.003899027 0.20595962
000170 f7 e8 74 3d 9b 1a ab 3e c6 cd 9c 3d 61 7c 96 3c
       0.059792485 0.33418736 0.07656436 0.018369855
000180 4e cc 99 3c ae 11 12 3d 28 2c e0 3b a5 2b e4 3c
       0.018774178 0.035661392 0.0068412013 0.027852843
000190 e5 07 85 3d 64 77 d0 3d ce 0d 48 3c 24 ad 18 3d
       0.064956464 0.10179022 0.012210323 0.037274495
0001a0 4e 70 cc 3b 97 8b 98 3c 66 22 6a 3e 12 82 9b 3e
       0.0062389737 0.01862125 0.22864684 0.30372673
0001b0 8a e9 36 3e bc be 8c 3d a6 1f 05 3e 3e 90 ef 3c
       0.17862526 0.06872317 0.13000354 0.029243585
0001c0 f9 54 d1 3d 2e cb 08 3d d2 18 b3 3c 13 69 ee 3d
       0.102212854 0.033396892 0.021862421 0.11641135
0001d0 5f 3d e2 3c 4c 10 39 3d 8e 25 65 3d 14 19 e4 3d
       0.027617155 0.045181558 0.055944018 0.11137596
0001e0 a1 17 50 3d 00 f4 10 3e c0 a2 ed 3c 28 49 3f 3d
       0.050803784 0.14155579 0.02900827 0.046700627
0001f0 05 20 fa 3d 0e 9e bf 3d dd 63 0c 3d 09 1c 86 3d
       0.122131385 0.093563184 0.034274925 0.06548316

bn2.running_var f4 [128]
000000 f5 c9 52 34 61 01 86 3b 05 7e 84 3a ad 66 51 3b
       1.9631246e-07 0.00408952 0.0010108358 0.0031952069
000010 bd 9e 41 3b ca 17 60 3b 9b 96 58 3b 87 55 df 3b
       0.0029544078 0.0034193867 0.0033048752 0.0068156156
000020 07 6d 76 3b 59 0d ab 3a e9 6e 37 3c 3a e3 70 3b
       0.0037601606 0.0013050243 0.011195877 0.0036756531
000030 c4 dc 3d 34 fa ff 3d 3c 92 74 06 3c 1c db 9a 3a
       1.7682311e-07 0.011596674 0.0082065035 0.0011814567
000040 32 b3 36 3b 19 16 8c 3c 9e 99 1b 3c 04 00 00 00
       0.0027877805 0.01710038 0.009497074 6e-45
000050 be 44 46 3b 7e c1 8b 3b f8 94 ca 3a a5 9a fc 3a
       0.0030253376 0.0042650094 0.0015455773 0.0019272162
000060 d5 89 22 3b b2 20 9f 3b 96 29 8a 3b f5 22 b9 3c
       0.0024801393 0.0048561925 0.004216383 0.022599677
000070 fb 07 b6 3b 7a a2 db 3b a0 db 5f 3b a9 e5 29 3c
       0.0055551506 0.0067027183 0.0034158006 0.010369697
000080 76 32 c9 3a 79 e6 22 3a 35 1d 85 3c 71 08 8c 39
       0.0015350122 0.00062141527 0.016249279 0.0002670917
000090 34 30 28 39 37 5f a4 3b 99 af b7 39 52 a0 b1 3a
       0.00016039686 0.0050162333 0.0003503531 0.0013551807
0000a0 55 43 03 3c d6 98 f9 3a 14 40 06 3c be 8b c4 3c
       0.008011659 0.0019042741 0.008193988 0.023992416
0000b0 4e bc b6 3c 4f d9 3b 3c 19 12 ea 3b 38 b7 80 3a
       0.022306588 0.011465385 0.0071432707 0.0009820228
0000c0 83 dc 13 3c 3d 82 7c 3c a4 40 72 3a 14 6a 9e 3c
       0.009024742 0.015411911 0.00092411996 0.019337691
0000d0 a9 86 77 3a 9e 4a 30 3c bf 77 bd 3c e4 3e 3c 3c
       0.0009442368 0.010759978 0.023128388 0.011489604
0000e0 bb 21 15 3c af 4c ce 3a db ad ae 3b 20 0c e2 3b
       0.00910228 0.0015739406 0.005330784 0.006898418
0000f0 07 41 40 3b e5 a2 a4 3a ff 3a fc 3c 52 51 8b 3a
       0.0029335634 0.0012560753 0.03078985 0.0010629094
000100 54 5f 9f 3b f2 21 e1 3b bd 17 34 3c 5b 45 81 3c
       0.004863659 0.0068705017 0.010991988 0.015780142
000110 c4 e4 12 3c 09 fd b2 3c 26 4d 2e 3c 98 43 9f 3c
       0.008965675 0.021849172 0.010638511 0.01944141
000120 de 7b 02 3b 68 98 bc 3b d2 a0 14 3b a5 1a 78 3c
       0.0019910256 0.005755473 0.0022678864 0.015143071
000130 49 ca 22 3a eb 2b 15 3c b8 65 d1 3b ab a0 11 3b
       0.00062099524 0.009104709 0.0063902996 0.002222101
000140 e6 31 89 3b ec 59 b4 3c ed 57 bc 38 48 48 2c 3c
       0.0041868566 0.022015534 8.980916e-05 0.01051528
000150 e8 ff 72 3c 20 51 e4 3b 40 27 c1 37 b9 83 89 3c
       0.014831521 0.0069676787 2.302567e-05 0.016786443
000160 6b c0 0a 3a 07 0d 65 3b da 26 25 39 72 84 cc 3b
       0.0005292955 0.0034950392 0.000157501 0.0062413746
000170 e0 e6 1e 3b 82 63 73 3c 49 cc f0 3b ac 62 d5 3a
       0.00242465 0.0148552675 0.0073485714 0.0016280017
000180 31 76 24 3b b3 42 47 3b 1c ba db 39 ec 36 4d 3b
       0.0025094862 0.0030404746 0.00041909597 0.0031313254
000190 a5 53 e5 3b 73 7a 29 3c f6 ff af 3a 08 eb 13 3b
       0.0069984966 0.010344136 0.0013427723 0.002257051
0001a0 f6 70 11 3a 7e 38 9a 3a e9 00 2f 3c 97 9b 43 3c
       0.00055481435 0.0011766104 0.010681369 0.011938951
0001b0 03 e0 32 3b da 88 4c 3c c1 65 9f 3c 57 2c 08 3b
       0.0027294166 0.0124838 0.0194577 0.0020778382
0001c0 3d b3 9b 3c 07 75 a1 3b 52 4a 20 3b 6f 10 3e 3c
       0.019006366 0.004927281 0.002445836 0.011600598
0001d0 d7 b7 12 3b 43 56 af 3b 6e c1 07 3c 58 77 2b 3c
       0.002238741 0.0053508594 0.008285863 0.0104654655
0001e0 18 01 a6 3b a4 13 31 3c e9 c7 47 3b ca af 88 3b
       0.0050660484 0.010807905 0.0030484146 0.0041713463
0001f0 b7 57 ca 3b ce 37 4a 3c 42 6a aa 3b 7e 67 d4 3b
       0.006175007 0.012342406 0.005200655 0.006482064

fc2.weight f4 [128, 128]
000000 c7 60 47 be a7 39 49 3d f7 cc 71 3d 7a 3a e2 bc
       -0.19470511 0.049127247 0.05903336 -0.027615774
000010 93 9e 9c bd 8b 5d 20 bd 5a a0 ab bd b7 89 bb 3d
       -0.07647433 -0.03915171 -0.08380194 0.091571264
000020 5a e7 25 be 4b ca b8 3c 9e 79 a4 3d d5 a7 f2 3b
       -0.16201535 0.022557398 0.08031009 0.007405261
000030 a1 68 22 3e e3 36 f2 bd 5b 68 51 bd 28 23 d5 3d
       0.15860225 -0.11826875 -0.05112491 0.10407096
000040 5c ac 1b 3e 8c 80 76 bc 03 dd 13 bd 46 ad 54 bd
       0.15202469 -0.015045296 -0.036099445 -0.05192306
000050 3a 6e 45 3d 6a b8 02 be ef ab 95 3d ca e5 b2 bd
       0.048200823 -0.12765661 0.07308184 -0.08735235
000060 4e 86 72 bd 88 b1 da 3c 25 7d aa bd fe f3 4b 3b
       -0.059210114 0.026695982 -0.08324651 0.0031120772
000070 0d 85 86 3c cf 5c 47 be 77 ea c0 3d 22 33 c9 bc
       0.016420865 -0.19468997 0.094197206 -0.024560515
000080 68 52 08 be 0f b1 43 3d 5b d0 84 3d 99 eb 86 bc
       -0.13312685 0.047776278 0.06485053 -0.016469764
000090 3c 25 34 bd 09 83 48 bd f1 9f d0 3d 57 6c 91 bc
       -0.043980822 -0.04895309 0.101867564 -0.017751856
0000a0 f5 79 4f 3d cf be a5 3b fa 29 0f bd f6 9c ae bd
       0.050653417 0.0050581465 -0.03495214 -0.08526032
0000b0 69 d8 50 bd bb f3 ee 3d 30 5b fa 3c dd 94 0f bc
       -0.050987635 0.11667582 0.03056106 -0.008763519
0000c0 ba f7 21 bd fb 56 09 be d6 aa ed bc 9c e0 2f 3d
       -0.03954289 -0.13412087 -0.029012125 0.042938814
0000d0 2c f1 53 bd c9 f3 54 bc c4 59 04 3c 4c bc 6f 3c
       -0.05174367 -0.012997576 0.008078042 0.014632296
0000e0 6f 16 50 3d f1 8d f3 bc 65 46 f9 3c 05 30 91 3d
       0.050802644 -0.029730769 0.030429075 0.07089237
0000f0 37 29 a4 bd 30 c8 92 3d 2a 2b b0 3d 6c a2 cd bd
       -0.080156736 0.07167089 0.08601983 -0.10040745
000100 ce 98 61 be 4b 81 6f 3a 8c 3e 90 bd de 88 7c 3d
       -0.22030947 0.00091363926 -0.0704318 0.061653964
000110 01 30 63 3d 2a a7 a7 bd c1 1d c9 3d 3a 24 5e bd
       0.055465702 -0.08186181 0.09820128 -0.054233767
000120 de 6c 37 bd 71 e7 01 3e f2 4b 19 be 4c 50 80 bc
       -0.04478156 0.12685944 -0.14970377 -0.015663289
000130 dd 9f e3 bd 9e bb 35 be 57 e0 b8 3b b1 cf 5a bd
       -0.11114476 -0.17747352 0.005641978 -0.053420726
000140 25 e9 85 3d 66 ef d8 bd 42 9a 0a be 3d 8a 43 bd
       0.065386094 -0.10592537 -0.13535407 -0.047739256
000150 da d6 8a bd 1e 12 05 bd 20 58 4e bd 19 06 a8 bd
       -0.06779261 -0.03248798 -0.05037701 -0.08204288
000160 92 46 a5 3d 36 56 c2 bd 05 be e9 bc 9c 5d 03 bd
       0.08070101 -0.094891 -0.028532991 -0.032071695
000170 52 61 cf bd 9f 4f fe 3c 17 fd 31 3d 1c 84 52 3d
       -0.10125984 0.031043826 0.043454256 0.05139552
000180 32 94 cc 3d fd b5 73 3d e7 12 2e 3c c1 46 d2 3c
       0.099892035 0.05949973 0.010624624 0.025668504
000190 d3 e1 05 bb 20 a9 8e bd 79 0e 86 3d fe fb 45 3d
       -0.0020428791 -0.06965852 0.06545729 0.04833602
0001a0 43 cd 87 3b 8f 4e 49 3d 83 91 a6 bc f6 ee 11 3b
       0.004144342 0.049147185 -0.020333057 0.0022267676
0001b0 eb d8 a8 ba 0a a5 0a be d9 07 c4 3d e4 e8 d2 bd
       -0.0012882029 -0.1353952 0.09571809 -0.102983266
0001c0 9f c3 c0 bc 88 49 bb bc 72 68 ac 3d 5c 16 c1 bb
       -0.02353078 -0.02286221 0.08418359 -0.005892558
0001d0 26 9a f2 bc c9 84 42 3b a6 c5 c6 3d d0 33 05 3d
       -0.02961452 0.0029681197 0.09705667 0.032520115
0001e0 f1 cc 61 3d 9b 7a 0c be 01 ee 93 bd cd 65 9e 3a
       0.055127088 -0.13718645 -0.0722313 0.0012084782
0001f0 ed 60 2d 3d 96 fa 75 3d fc b6 ea bc 58 96 2f 3c
       0.042328764 0.06005343 -0.028651707 0.010716997
000200 15 db 1e 3d 00 b0 dd 3d d9 e2 2d 3d 76 b2 4a 3c
       0.03878315 0.10824585 0.042452667 0.01237165
000210 f9 e1 5f be 19 1f 9f 3c 3b 7c 8e bb 87 91 44 3c
       -0.21863545 0.019424008 -0.0043483055 0.011997587
000220 dc 51 c8 bd 5d 95 80 bd eb b2 a4 3d 94 c8 86 3c
       -0.097812384 -0.06278489 0.080419384 0.016453065
000230 bc 2c 8c bd 21 d5 76 be 74 e2 3d be b3 e5 0d 3d
       -0.0684447 -0.2410474 -0.18543416 0.034642886
000240 e9 d6 4d bd 0f 9d 6c 3d b2 a6 06 bd d0 65 6f 3c
       -0.050253782 0.05776697 -0.032873817 0.014611676
000250 f2 03 18 bd e1 4b 32 be da d2 e1 3d bf b0 30 ba
       -0.037113138 -0.17411758 0.11026545 -0.00067402044
000260 7f 86 2d bd df f0 a6 bd 40 44 9c bd ed d7 03 be
       -0.042364594 -0.08151411 -0.07630205 -0.12875338
000270 05 76 a9 bc 6d 12 ae bd 6f 97 25 3d 3f e7 db bd
       -0.020686159 -0.08499608 0.04042762 -0.10737466
000280 f7 be 0c 3b 45 40 a3 3d 7f fa 8e bd 54 9c d1 3d
       0.0021476129 0.07971243 -0.06981372 0.10234895
000290 ff d4 f2 3d 4c 14 c0 3d e1 3f 28 be 0a f8 57 3d
       0.11857032 0.09378871 -0.16430618 0.052726783
0002a0 1c 65 74 bd 3d f2 79 bd b0 8b 99 bd c4 e4 41 bd
       -0.059666738 -0.061022032 -0.074973464 -0.04733731
0002b0 a5 85 34 bd 74 24 02 3d 51 3f dc b9 32 5e fe bc
       -0.044072766 0.031773046 -0.00042008844 -0.031050775
0002c0 5e cd d6 bd cf ee 31 bd a4 79 77 3d 74 5e 9f 3b
       -0.104883894 -0.043440636 0.06041874 0.0048635546
0002d0 0e 69 7b bd 50 80 61 ba fb ae 7b 3d ae 7d 4c 3c
       -0.061379485 -0.0008602189 0.06144617 0.012481136
0002e0 8a 32 b4 bc d1 3c 9e bd f7 14 9c bb 56 8e ba bc
       -0.021996755 -0.077264436 -0.0047632414 -0.02277295
0002f0 e7 72 47 3c 25 be 1a bd 69 1f 7a 3c 5c fe 14 3d
       0.012173391 -0.037778992 0.015266278 0.03637539
000300 b0 82 8f 3d 0e 53 8b bc a5 20 46 be f1 0b 03 3d
       0.070073485 -0.017007377 -0.1934839 0.03199381
000310 c2 59 a7 bc 4e c7 b6 bc c4 d2 85 3d 03 f8 2c 3d
       -0.020428542 -0.022311833 0.06534341 0.04222871
000320 93 55 c0 bd 5a 74 da bd 55 9c 92 bd 94 e1 4d 3d
       -0.09391322 -0.106667235 -0.07158724 0.050263956
000330 97 00 2d bb 8c 2f 2a 3c be a6 3a 3b 31 28 10 3e
       -0.0026398057 0.010387313 0.0028480734 0.14077832
000340 92 4d 38 3d f4 f8 1a bd c8 d7 20 bd 07 5b f3 bc
       0.04499585 -0.037835076 -0.039268285 -0.029706491
000350 ce c7 35 bd db 13 75 bb 82 f2 1c 3d 5a 81 10 bd
       -0.04438 -0.0037395868 0.03831721 -0.03527961
000360 0e be 9c bd b0 6f d9 bd ce d5 75 3d 72 aa b4 3d
       -0.076534376 -0.10617006 0.060018353 0.08821572
000370 7d 9d c5 bd af a9 06 3e d9 92 64 bd d3 4f 66 bd
       -0.09649179 0.13150667 -0.055804107 -0.05622847
000380 e0 c0 16 3d 81 91 75 3d 72 62 66 bd 72 d1 46 3c
       0.036805034 0.059953216 -0.05624623 0.012134897
000390 f5 71 8e 3d b4 96 02 be 71 62 a5 3c 65 bf 94 bd
       0.06955329 -0.12752801 0.020188542 -0.07263068
0003a0 8e 32 56 bd ee 45 26 be 0d f5 ac bd 5b 13 ae bd
       -0.052294306 -0.16237614 -0.08445177 -0.084997855
0003b0 53 32 42 3d 6c c6 66 bc 33 9a 7d bc 9a 48 8c 3d
       0.047411274 -0.014085393 -0.0154786585 0.06849785
0003c0 2a ec 29 3d a4 7d cd 3c 16 61 10 3d 2b e7 c4 bb
       0.04148499 0.025084324 0.03524884 -0.0060090027
0003d0 98 c5 15 3c 24 9a 0e 3b cc c7 92 3d 9f 53 10 3d
       0.009141348 0.0021759355 0.071670145 0.035235997
0003e0 1d 4c 9e bd 7c 7c 99 bd 56 7e 1a 3d d3 f2 06 be
       -0.07729361 -0.07494447 0.03771814 -0.13178568
0003f0 c7 9f c1 3c 3c bb 40 3d bc eb 99 bd 8a 35 86 3d
       0.023635758 0.04705356 -0.07515666 0.065531805

fc2.bias f4 [128]
000000 8f 45 32 bc 3c af 99 bd b5 de c2 3d 1d af 7e bb
       -0.010880842 -0.075041264 0.09515134 -0.00388617
000010 fb a6 8a bd 32 4a a5 bc a9 81 08 be 1e 27 12 3e
       -0.0677013 -0.02017698 -0.13330711 0.14272735
000020 fc 04 cd bd af 1c a4 bd af 15 af 3d 7e af 02 be
       -0.10010716 -0.080132835 0.08549058 -0.12762257
000030 8a 73 50 be 93 84 b4 3d 47 df 87 3c 5a 67 eb bd
       -0.20356575 0.08814349 0.01658596 -0.11494322
000040 51 43 b7 bd 84 e1 7b bd 7a 8b 22 bd 00 aa 81 3d
       -0.089483865 -0.061494365 -0.039683796 0.06331253
000050 82 87 2a be d9 73 20 be e7 27 c7 bd cb 83 d6 bd
       -0.16653255 -0.15669192 -0.09724408 -0.10474356
000060 73 54 08 3e ac c3 83 3d e4 c2 b7 bc db 4f c5 ba
       0.13313465 0.06433806 -0.022431798 -0.0015053706
000070 74 5d e5 bd 18 9c 1c be e1 0f d9 bd 16 0a c5 bd
       -0.111994654 -0.1529392 -0.10598732 -0.09621064
000080 98 b9 26 bd f1 93 c3 bd bb 89 9a bd 16 8b 16 3e
       -0.04070434 -0.09549702 -0.07545801 0.14701495
000090 f5 28 ac 3c 0c f9 dc bd 28 70 6d 3d 0f 07 9a 3d
       0.021015624 -0.107896894 0.05796829 0.075208776
0000a0 a6 d9 0f bd 84 b7 b1 bd ef 09 6b 3d 4e dc 00 3e
       -0.035119675 -0.08677581 0.05738252 0.1258404
0000b0 fb 91 7b bc 15 85 d2 bd e9 d8 b6 ba 86 3e 16 be
       -0.015354629 -0.1027929 -0.0013950142 -0.14672288
0000c0 e1 cd c1 bd 7c c4 6f 3c 8c 0b 01 bd 87 cb 5b 3d
       -0.094630964 0.014634248 -0.031505153 0.053660896
0000d0 fc 5d 81 bc 6e 25 1f be ff 79 2c bd c3 e0 2b 3c
       -0.015791886 -0.15541622 -0.042108532 0.010490599
0000e0 45 c7 8b bd c0 b4 f4 bd 53 07 0d 3c 7e 48 0b 3d
       -0.06825117 -0.11948538 0.008607703 0.03400468
0000f0 16 c2 4e bd ab c1 ed bc e5 1b f6 bd de 49 85 3c
       -0.050478064 -0.029023012 -0.12017039 0.016270574
000100 2b 97 93 bd ee c6 0b 3b 1f ae d5 3d de d5 36 3e
       -0.072065674 0.0021328288 0.104336016 0.17855021
000110 11 1e 1e bd bf 44 04 bd 7f c1 a6 3d c9 b7 b5 3c
       -0.038602892 -0.032292124 0.08142375 0.022182362
000120 05 92 09 3d 0c 54 2e bc 07 3f 79 bd 19 6e 11 bd
       0.03358652 -0.0106401555 -0.060851123 -0.035505388
000130 f0 06 fb 3c e0 4d 7a bd 39 06 3e be 57 04 dc bd
       0.030642956 -0.061109424 -0.18557061 -0.10743015
000140 09 53 d8 bd a7 37 99 bc d2 a6 f5 bd 47 2a e8 bd
       -0.10562713 -0.018703295 -0.11994709 -0.11336189
000150 4e f1 97 bd dc 7e 80 bd 8a 1f a8 bd 6f f3 62 3d
       -0.07419072 -0.062741965 -0.082091406 0.055407938
000160 9e 7c 2b bd b9 61 5d bb 38 2a 87 3d 72 be 00 be
       -0.04186689 -0.003378017 0.065998495 -0.12572649
000170 7e 71 10 bd 0b 15 01 3e e9 f5 d1 3d 48 07 4e be
       -0.035264485 0.12605684 0.10251982 -0.20119965
000180 a5 d0 f9 bb 51 f0 2f 3e 10 c4 18 be 34 4a dc bc
       -0.0076237493 0.17181517 -0.14918542 -0.026890852
000190 f0 45 0b bd 9b 0b ff bc e8 b4 ee bd d8 be 87 bd
       -0.034002244 -0.031133464 -0.11655599 -0.066281974
0001a0 df 50 35 3c 14 cc 8f 3e 7b 59 72 bd cc a1 4e 3d
       0.011066644 0.28085387 -0.059167366 0.05044727
0001b0 9d b7 25 be 40 0c 8d bc 0b aa 74 bc 62 cb 0c be
       -0.16183324 -0.017217755 -0.0149331195 -0.1374946
0001c0 11 97 49 3d ea e0 dc bc 43 a9 f1 bd b3 d2 ba bd
       0.049216334 -0.026962716 -0.11799862 -0.09122219
0001d0 62 51 e5 bd 32 70 67 bc bd fc 51 bd 33 80 23 be
       -0.11197163 -0.014125871 -0.05126642 -0.15966873
0001e0 5f df 6b bb b8 18 43 3d 15 85 8b bc a8 2e 04 3a
       -0.0035991294 0.047630996 -0.017031232 0.0005042353
0001f0 ec 66 7c bc 3d c4 60 bd 3c fd f1 bd 17 05 9d bd
       -0.015405398 -0.054874647 -0.11815879 -0.076669864

bn3.weight f4 [128]
000000 70 f5 a5 3f f6 a6 96 3f 05 3c 8a 3f 88 fd c4 3f
       1.2965527 1.1769702 1.0799567 1.5389872
000010 ca bf 92 3f 73 9a 3e 3f a3 8a c7 3f 7b 88 96 3f
       1.1464779 0.7445442 1.5589184 1.17604
000020 81 28 cc 3f 61 83 ff 3e b4 09 a5 3f 08 df 1c 3f
       1.5949861 0.49904922 1.2893586 0.6127782
000030 bc 77 91 3f 72 9d bf 3f 7a 1b 84 3f a1 34 78 3f
       1.1364665 1.4969923 1.0320885 0.96955305
000040 88 bf 57 3f ee 94 6f 3f 85 20 40 3f a6 bf 5e 3f
       0.8427663 0.93586624 0.7504962 0.8701118
000050 62 98 75 bf 8e 91 ea 3f c8 12 e4 3e 6d 1e 31 3f
       -0.9593564 1.832567 0.4454558 0.6918705
000060 a2 ef 93 3f 8d 68 96 3f 79 c8 8a 3f 30 83 70 3f
       1.1557505 1.1750656 1.0842429 0.93950176
000070 59 aa a2 3f 29 a1 b1 3f a8 33 a8 3f db 53 07 3f
       1.2708236 1.3877307 1.3140764 0.5286233
000080 84 3e 6b 3f c1 c0 21 3f 32 6d a3 3f f6 1b 26 3f
       0.91892266 0.63184744 1.2767699 0.64886415
000090 76 43 a8 3f da f0 90 3f 97 8c af 3f 12 bd 47 3f
       1.3145587 1.1323502 1.371478 0.78022873
0000a0 3d 11 87 3f fa 47 96 3f 1c 04 2c 3f 7e 53 28 3f
       1.0552136 1.1740716 0.6719377 0.657524
0000b0 09 2f d1 3f 16 be 6e 3f b1 b1 38 3f 46 92 52 3f
       1.6342479 0.932588 0.72146136 0.82254446
0000c0 48 d4 85 3f 77 14 2b 3f 08 b3 58 3f 47 fd 87 3f
       1.0455408 0.668281 0.8464818 1.0624169
0000d0 be bc 0d 3f 80 e3 59 3f d2 fc 86 3f 36 f5 98 3f
       0.5536612 0.8511276 1.0545905 1.1949832
0000e0 25 50 9b 3f 69 1e 69 3f d6 68 b4 3f 30 96 40 3f
       1.2133833 0.9106203 1.4094493 0.7522917
0000f0 ed a0 b6 3f c4 06 5f 3f 28 19 7d 3f 59 72 9d 3f
       1.4267861 0.871197 0.9886651 1.2300521
000100 61 5e 7c 3f 6d 9b c8 3f 4e 02 92 3f 42 cf a6 3f
       0.9858151 1.5672432 1.1406953 1.3032
000110 1f 71 8b 3f 91 fb 75 3f d4 3f 6f 3f c6 25 58 3f
       1.0893897 0.96086985 0.9345677 0.8443264
000120 b3 26 5a 3f 5e 19 a5 3f b3 08 a4 3f 72 ec c4 3f
       0.852153 1.2898366 1.2815155 1.5384657
000130 90 9d 68 3f 33 76 8b 3f fb 60 34 3f 2c 50 34 3f
       0.9086542 1.0895447 0.7046048 0.7043483
000140 5a 98 89 3f 1f ff 6a 3f 83 d9 4d 3f d5 ac 0e 3f
       1.0749619 0.91795534 0.8041002 0.5573247
000150 ff ee d8 3f 79 b6 2b 3f 63 d1 a1 3f d2 e6 5e 3f
       1.6947936 0.67075306 1.2642025 0.87070954
000160 63 3a 1e 3f 65 de a7 3f dd 0f 1e 3f e0 c5 7e 3f
       0.6180784 1.3114744 0.61742955 0.99520683
000170 dd b5 2d 3f 52 98 bb 3f 66 e1 a4 3f 77 26 ba 3f
       0.67855626 1.465586 1.2881286 1.4542989
000180 35 ac a2 3f 83 01 76 3f 93 76 32 3f 13 41 41 3f
       1.2708803 0.96096057 0.6971218 0.7548992
000190 ed 61 78 3f cb 0b 34 3f 31 ec 3d 3f 00 5e 30 3f
       0.9702442 0.70330495 0.74188524 0.6889343
0001a0 57 ca 9c 3f 48 a0 86 3f d0 ab 9b 3f 29 c1 e9 3f
       1.2249249 1.0517664 1.2161808 1.8262073
0001b0 43 45 7d 3f f9 5a bc 3f 7c 3d 46 3f 3f 50 20 3f
       0.9893381 1.4715263 0.7743757 0.62622446
0001c0 1b d3 49 3f 24 12 f7 3e fc 7e 92 3f e7 15 62 3f
       0.78837746 0.48256028 1.1445003 0.8831467
0001d0 39 de 26 3f 55 64 26 3f 1a bf 33 3f 9b ce ae 3f
       0.65182835 0.64996845 0.7021347 1.3656801
0001e0 33 99 68 3f 9d 55 8e 3f dd 92 58 3f 10 98 97 3f
       0.90858763 1.1119877 0.84599096 1.1843281
0001f0 80 d6 8c 3f 9a b7 a6 3f f9 72 82 3f 35 4b 95 3f
       1.100296 1.3024781 1.0191337 1.1663576

bn3.bias f4 [128]
000000 46 1c 39 3d 6d 52 8d bb a0 6f 8d 3c 26 12 e5 3b
       0.04519298 -0.0043128044 0.017265141 0.006990689
000010 ea 52 3b 3c 30 48 87 3d 23 01 1d bc e2 f0 84 3d
       0.0114333425 0.066055655 -0.009582791 0.06491257
000020 d9 ab 8e 3a e8 3c 41 3d e5 7d bc 3c d8 35 33 3d
       0.0010884955 0.047177225 0.02300925 0.04375252
000030 37 d8 33 3d 6e fe 7f bc 5d eb 68 3c 22 a1 23 3d
       0.04390737 -0.015624626 0.014216271 0.03994859
000040 68 0e 84 3d 1b 99 0f bd 5b f4 5a 3d b9 15 90 bc
       0.0644806 -0.035058122 0.05345569 -0.017588483
000050 fd e5 47 3d 72 71 31 bb 9c 11 ce bc 7f 4f f5 bc
       0.04880332 -0.0027075675 -0.025154881 -0.029945133
000060 1f 69 8b bd fe 8e 0d bb d5 00 b2 3d a1 dd d8 3a
       -0.0680716 -0.0021600123 0.08691565 0.0016545543
000070 f3 e7 8f 3d 65 76 a2 3c 8e cb 2d bd bd 91 d2 3c
       0.07026663 0.019831846 -0.042430453 0.025704259
000080 59 bd 3d bd 17 0e 4e bd 72 c2 11 bd b8 23 4a 3d
       -0.046323154 -0.050306406 -0.035585828 0.04935047
000090 68 8a 80 3b 8a da 60 3b cb 44 ed bb 3f 3e 1c 3d
       0.0039227493 0.0034309947 -0.007240867 0.0381453
0000a0 4e a6 3f bd dd be 9d 3d 7f d1 b5 3c 4b 30 13 3d
       -0.04678946 0.0770242 0.022194622 0.035934728
0000b0 45 34 3f 3d 94 1d 88 3b 2f 7b 8f bc ec 6b 11 bc
       0.046680707 0.0041539166 -0.017514793 -0.008875828
0000c0 a8 17 09 bd f5 91 b6 3c 94 3f 29 3c 8a 83 ff 3c
       -0.033469826 0.022286395 0.0103301 0.031190652
0000d0 53 54 51 3d 2a f8 9e 3d 81 a3 1b bc 06 0d 01 bc
       0.05110581 0.07762177 -0.009499432 -0.00787664
0000e0 1a 62 5f 3d cc 96 cb 3c 72 79 82 3c 73 99 1d bd
       0.054536916 0.024852179 0.01592705 -0.03847642
0000f0 ec 31 e4 3d f4 6f 8e bd 27 bf 38 3d ea 52 31 3d
       0.11142334 -0.06954947 0.045104172 0.043291964
000100 24 7c 1e bd 19 7f 04 3d ec ef 66 bc ec 1b 51 3d
       -0.03869261 0.032347772 -0.014095288 0.05105202
000110 d7 ca 03 3d f8 f3 67 bb 6a 56 e9 3a 6c cb 83 3c
       0.032175865 -0.003539322 0.0017802243 0.01608821
000120 d9 ff c1 3d 98 e1 37 bd 6c 3e 83 bc e1 62 7e 3c
       0.09472627 -0.044892877 -0.016020976 0.015526504
000130 e7 9e ad bc fb 1b 0f 3d 33 e1 cc bc 17 c1 9e bd
       -0.021193935 0.034938794 -0.025009727 -0.07751673
000140 4c 6d 8a 3c f9 b7 9b 3c b5 a1 5b 3d 62 7f 51 3d
       0.01689782 0.019008623 0.053621013 0.051146872
000150 8e 64 82 bc 69 b2 4a bd c1 14 a9 bd 90 68 75 bd
       -0.015917089 -0.04948655 -0.082559116 -0.05991417
000160 ba eb 9c 3b a4 f2 83 bc ef bc 16 bd 10 fe 06 3d
       0.004788843 -0.016106911 -0.036801275 0.032957137
000170 7d 14 c8 bd a8 8f fc bc 4e d6 aa 3c 2a 18 1d bd
       -0.09769533 -0.03083022 0.020854142 -0.038353123
000180 ab ea 99 bd b6 0a 3d bd c0 a7 27 3d 4a 05 4c bc
       -0.075154625 -0.046152793 0.040931463 -0.012452433
000190 24 ef 78 bd 5d a3 2c bc 1d f8 61 bd 41 8c 5a bc
       -0.060774937 -0.010536996 -0.05516826 -0.013339103
0001a0 f7 b1 03 bd 11 b8 98 3d 58 07 d6 bb 7a f0 12 3d
       -0.032152142 0.07456983 -0.006531637 0.035873868
0001b0 56 95 67 3d c9 e0 48 bd 27 30 87 3d 3e e4 a2 bc
       0.056538902 -0.049042497 0.06600981 -0.019884225
0001c0 bb 25 68 bc 2d 38 23 bd db b3 a5 3d 98 6c 35 bd
       -0.014169152 -0.039848495 0.08090945 -0.044293016
0001d0 97 72 04 3d 72 3c 5c 3c 33 d3 0a 3d 4a de 11 3d
       0.032335844 0.013442146 0.03389282 0.035612382
0001e0 ae 92 b3 bd dc ff 63 bb 1f a0 86 bd c8 04 2b 3d
       -0.08768211 -0.0034789955 -0.065735094 0.041752607
0001f0 cc fc dd bc 89 13 57 bd 8b b8 2d 3d 30 cb a1 3b
       -0.027098082 -0.052508865 0.042412322 0.004937552

bn3.running_mean f4 [128]
000000 d3 2e 91 3d 9f d4 92 3c 0c d5 56 3c 1e df de 3c
       0.07089009 0.017923651 0.013112318 0.027206
000010 d9 08 4f 3d ca af 11 3c a1 4a 9b 3d a8 d4 44 3e
       0.050545547 0.008892009 0.07582594 0.19221747
000020 eb 90 0e 3d 13 e1 ea 3c ce 12 be 3d 04 00 00 00
       0.034806173 0.028671777 0.092809305 6e-45
000030 90 66 3d 3a ca 36 4a 3e 77 69 2e 3d 6e 02 f8 3d
       0.0007225061 0.19747463 0.042581048 0.121098384
000040 5b 37 db 39 ed 78 08 3c a8 a6 b7 3d 19 4e d0 3e
       0.00041812178 0.008329612 0.08967334 0.40684584
000050 17 ae 41 3e 72 cc 69 3a 6e 05 08 11 f9 68 01 3d
       0.18914066 0.00089187094 1.0730181e-28 0.03159425
000060 73 70 0c 3f d7 f9 99 3e fb ee a9 3c db d7 5d 3e
       0.54859084 0.30073425 0.020743838 0.21664374
000070 04 00 00 00 49 c1 7e 3d 04 00 00 00 04 00 00 00
       6e-45 0.06219605 6e-45 6e-45
000080 0e c1 28 3c bc cd 12 3c 73 a3 38 3e 7b 30 f2 3d
       0.010299934 0.008960184 0.18031101 0.11825653
000090 eb 32 0e 3e a8 c5 c1 3c c8 de 81 3e fd 84 7f 3e
       0.13886611 0.02365382 0.2536528 0.24953075
0000a0 bc d5 1f 3d 6b f7 87 3a f4 8d 92 3e e7 9e b0 3e
       0.039022192 0.0010373419 0.28623927 0.34496233
0000b0 e1 66 c1 3b 0d 2a dc 3a 22 e3 90 3c 04 00 00 00
       0.0059021567 0.00167972 0.01768643 6e-45
0000c0 04 00 00 00 26 59 c4 3e 14 60 af 3d c6 d8 b7 3e
       6e-45 0.38349265 0.08563247 0.35907573
0000d0 5a c5 0e 3a 04 00 00 00 c5 e9 d0 3b 0b 32 f2 3d
       0.0005446278 6e-45 0.0063755237 0.11825951
0000e0 c3 2d bf 3d 75 99 77 3b da bb 90 3d d3 8e ff 3d
       0.093349 0.0037780677 0.0706708 0.124784134
0000f0 04 00 00 00 3d 49 4b 3c 6d 30 c6 20 48 2c 0b 3d
       6e-45 0.012407598 3.357455e-19 0.033977777
000100 10 49 ef 3b fe c3 23 3e 9a fc b6 3e 9c 1c 10 3f
       0.007302411 0.15992734 0.35739595 0.56293654
000110 d8 a5 43 3d f8 89 62 3e ba 68 ac 3e f7 b2 80 3d
       0.047765583 0.22122943 0.3367365 0.06284135
000120 c8 05 b3 3e 52 e6 6e 3d cf 86 1a 3b 48 1f f5 3d
       0.34965348 0.05832512 0.0023578887 0.11968857
000130 c9 af 40 3d 96 73 04 00 04 00 00 00 a8 78 3d 3e
       0.04704264 4.08806e-40 6e-45 0.18503058
000140 06 d1 fd 3c f8 b3 0b 3b df 2d 32 3d 52 a4 e3 28
       0.03098346 0.0021316987 0.043500777 2.5273325e-14
000150 dc 6c 88 3d 1d e5 98 3c 04 00 00 00 a7 f3 42 3e
       0.06661388 0.018663937 6e-45 0.19038258
000160 9f 76 1a 3d 32 78 0d 3e 06 69 72 3e 04 00 00 00
       0.037710782 0.13815382 0.23672876 6e-45
000170 3e 83 04 38 75 f7 de 3e 30 bc 0c 3e 04 00 00 00
       3.159348e-05 0.4354817 0.13743663 6e-45
000180 65 12 4d 3e 98 6a 2e 3f 6c 12 9b 32 cb 9e b0 3e
       0.20026548 0.681314 1.8052752e-08 0.3449615
000190 eb b0 9c 3d 89 d9 88 3e 48 db 81 3c 7f 69 88 3c
       0.07650932 0.26728466 0.015851632 0.016651867
0001a0 58 1c b1 3d 20 44 82 3f 82 d9 f2 3d d4 49 72 3d
       0.08647984 1.017704 0.118578926 0.05915244
0001b0 7c 5d a0 3a c9 e5 c2 3d a4 80 b4 3d 09 87 ca 3b
       0.0012234892 0.09516484 0.08813599 0.006180648
0001c0 d8 1d c0 3c 26 6c 29 3a c9 09 ab 3c 15 a5 2c 3c
       0.02345173 0.0006462954 0.02087869 0.0105374055
0001d0 04 00 00 00 56 bc 0a 3e 41 bf 11 3e 04 00 00 00
       6e-45 0.13548407 0.14233114 6e-45
0001e0 ad 9c ef 3b 74 7a 30 3d 68 52 04 3e 91 77 aa 3d
       0.0073123784 0.04308553 0.1292206 0.08323587
0001f0 60 95 14 3e 67 75 70 38 51 2a 16 3b 75 b1 c7 3d
       0.14510107 5.73298e-05 0.0022913406 0.09750644
